ckpt/final_model_eps_50_seed_1_wd_1e-02.ckpt (torch_old, 726117 bytes, 12 tensors)

conv1.weight f4 [32, 1, 8, 8]
0	0xbca5ea7a	-0.020253409
1	0xbc01fdff	-0.007934093
2	0x3d4f5520	0.05061829
3	0x3dee0d2b	0.11623605
4	0x3dbb076a	0.091322735
5	0xbd025528	-0.031819493
6	0xbe008d41	-0.12553884
7	0xbdcdfcba	-0.100579694
8	0xbd145d26	-0.036221646
9	0xbd0c1f31	-0.034209434
10	0x3ceea55c	0.029131584
11	0x3df358f4	0.11882201
12	0x3dfb6dec	0.12276825
13	0x3b78008e	0.0037842127
14	0xbddcb5b9	-0.10776848
15	0xbdd322ff	-0.10309409
16	0xbd32b6f0	-0.043631494
17	0xbd78bf5d	-0.060729373
18	0xbb11900b	-0.00222111
19	0x3de02b90	0.10945809
20	0x3e1725a4	0.14760453
21	0x3d319b3b	0.04336093
22	0xbda7b277	-0.08188336
23	0xbdccc1d6	-0.09997909
24	0xbd316f26	-0.04331889
25	0xbdad3493	-0.08457293
26	0xbd1ce4a7	-0.038303997
27	0x3db65d9a	0.08904572
28	0x3e276482	0.16346934
29	0x3da8d7ad	0.08244262
30	0xbd4791b0	-0.048722923
31	0xbdb81d53	-0.08989968
32	0xbd01d0d8	-0.03169331
33	0xbdcacc63	-0.09902265
34	0xbd9e26a0	-0.07722211
35	0x3d57daef	0.052699026
36	0x3e21907a	0.1577777
37	0x3dde6bbe	0.10860394
38	0xbc7d93d5	-0.01547714
39	0xbd951b63	-0.07280614
40	0xbc07031f	-0.00824049
41	0xbdd04c74	-0.10170832
42	0xbde60191	-0.112307675
43	0x3bb3c67e	0.0054863086
44	0x3e06dd3f	0.13170336
45	0x3def8309	0.11694915
46	0x3c3979cf	0.011320545
47	0xbd5e4c9d	-0.054272283
48	0x3c8f74bc	0.017511718
49	0xbdbde82e	-0.092728004
50	0xbe090b44	-0.13383204
51	0xbd080551	-0.033208195
52	0x3dd49705	0.10380367
53	0x3df59d04	0.11992839
54	0x3d14bd10	0.036313117
55	0xbd04c04a	-0.032409944
56	0x3d34ddd6	0.04415687
57	0xbd9ef69c	-0.07761881
58	0xbe13efe1	-0.14446975
59	0xbd880857	-0.06642216
60	0x3d93bf30	0.072142005
61	0x3de80a3c	0.11330077
62	0x3d5e4a3f	0.054270025
63	0xbc347ec0	-0.011016548
64	0xbd5a7cbb	-0.05334161
65	0xbe09776c	-0.13424462
66	0xbe0b3c96	-0.1359733
67	0xbcf97f25	-0.030456135
68	0x3dbd0ee2	0.09231354
69	0x3e067d71	0.1313379
70	0x3d8c8a5e	0.06862329
71	0xbc3588fd	-0.011080024
72	0xbd951e92	-0.072812214
73	0xbe0dcfba	-0.13848773
74	0xbdda3be9	-0.10655958
75	0x3ce326d7	0.027728481
76	0x3e125941	0.1429186
77	0x3e14dc09	0.14537062
78	0x3d49cb6b	0.04926626
79	0xbd1b7641	-0.037954573
80	0xbdaae883	-0.08345129
81	0xbdf84cd0	-0.12124026
82	0xbd52c5ee	-0.05145829
83	0x3dc4518d	0.09585867
84	0x3e398238	0.18116081
85	0x3e09e8c6	0.13467702
86	0x3c575695	0.013143201
87	0xbd85bfe4	-0.06530741
88	0xbdaa2b5b	-0.08309051
89	0xbda851df	-0.08218741
90	0x3c94b45d	0.01815241
91	0x3e206a2e	0.15665504
92	0x3e4546ea	0.19265333
93	0x3dca4f8d	0.09878454
94	0xbcfc65f6	-0.030810338
95	0xbdaa545d	-0.08316872
96	0xbd8a21a7	-0.067447
97	0xbd0507c2	-0.0324781
98	0x3da17a1d	0.078846194
99	0x3e3b798d	0.18308087
100	0x3e24ea05	0.16104896
101	0x3d0a99ba	0.03383801
102	0xbda2e677	-0.07954114
103	0xbdbc00b4	-0.091798216
104	0xbd2f6c26	-0.042827748
105	0x3c44f28e	0.01202072
106	0x3dde446f	0.108528964
107	0x3e24c8ba	0.16092196
108	0x3db3976a	0.08769114
109	0xbd40e36f	-0.047091898
110	0xbdfb2b00	-0.12264061
111	0xbdb68f23	-0.0891402
112	0xbc8720ff	-0.016495226
113	0x3d44225b	0.047884326
114	0x3df37df1	0.11889256
115	0x3df9f25f	0.12204432
116	0x3c8d3608	0.017237678
117	0xbdd9ecca	-0.10640867
118	0xbe111735	-0.14169009
119	0xbd9a9d7c	-0.07549569
120	0x3b91db0a	0.0044511603
121	0x3d7c0983	0.06153251
122	0x3dcc6cf3	0.09981718
123	0x3d81ac91	0.063317426
124	0xbd587d5a	-0.05285392
125	0xbe197a71	-0.14988114
126	0xbe14e358	-0.1453985
127	0xbd6aa3a5	-0.05728497
128	0xbcfc71e4	-0.030816026
129	0xbd0223ad	-0.031772304
130	0xbc8cccc0	-0.017187476
131	0x3c6c5527	0.014424599
132	0x3d43d40a	0.047809638
133	0x3d6f72ab	0.058458965
134	0x3d41cb57	0.04731306
135	0x3d0185af	0.03162163
136	0xbd22d4a0	-0.039753556
137	0xbd2d0e83	-0.042250168
138	0xbcdeda1c	-0.027203612
139	0x3be23fcb	0.0069045774
140	0x3d391fe4	0.04519643
141	0x3d7bd5aa	0.061483063
142	0x3d5d8adb	0.0540875
143	0x3d2206fd	0.039557446
144	0xbd41a235	-0.047273833
145	0xbd54d3cc	-0.051959798
146	0xbd1eb9d0	-0.038751423
147	0xbba00f1c	-0.0048846137
148	0x3d17253d	0.036900748
149	0x3d7266ca	0.05918006
150	0x3d68b37f	0.056811806
151	0x3d340759	0.04395232
152	0xbd595a66	-0.053064726
153	0xbd778aa0	-0.060434937
154	0xbd4f2268	-0.05056992
155	0xbc956dd9	-0.018240856
156	0x3cdac6da	0.026706148
157	0x3d66491e	0.056222074
158	0x3d77739f	0.060413
159	0x3d4d464a	0.05011586
160	0xbd65c655	-0.056097347
161	0xbd87bd82	-0.066279426
162	0xbd7a5e29	-0.061124954
163	0xbd078a59	-0.033090923
164	0x3c4a68eb	0.012354116
165	0x3d407ba7	0.046992924
166	0x3d6a2b6b	0.057170313
167	0x3d4c1658	0.049825996
168	0xbd4e5755	-0.050376255
169	0xbd7f5467	-0.06233635
170	0xbd8109a0	-0.06300664
171	0xbd2b67a7	-0.041846897
172	0x3a116994	0.00055470434
173	0x3d17a499	0.037022207
174	0x3d5260d7	0.051361885
175	0x3d4022f8	0.04690835
176	0xbd3f7f4d	-0.046752263
177	0xbd74acc1	-0.059735063
178	0xbd84d4f9	-0.06485934
179	0xbd4ce46f	-0.05002254
180	0xbc381db3	-0.01123755
181	0x3cd28cee	0.025701966
182	0x3d315c70	0.043301046
183	0x3d2af93c	0.041741595
184	0xbd1664b5	-0.036717135
185	0xbd4d1e89	-0.05007795
186	0xbd731e68	-0.05935517
187	0xbd5111dd	-0.051042426
188	0xbc945db1	-0.018111082
189	0x3c832617	0.016009374
190	0x3d0c0eca	0.03419379
191	0x3d0e4b1d	0.034739602
192	0x3d98fa33	0.07469597
193	0x3d8e239a	0.06940384
194	0x3c075cd1	0.008261875
195	0xbd9bb59a	-0.07602997
196	0xbde59a03	-0.11211016
197	0xbd9c5b6e	-0.07634626
198	0xbc6f8c39	-0.014620834
199	0x3cb6bd4d	0.022307063
200	0x3d99ded2	0.07513203
201	0x3d58f07a	0.05296371
202	0xbcd16269	-0.025559621
203	0xbdde4279	-0.108525224
204	0xbdfa1ab1	-0.12212122
205	0xbd7a9343	-0.061175596
206	0x3bd7dd93	0.006587693
207	0x3d0990b8	0.03358528
208	0x3d89f6f7	0.06736558
209	0x3ce1c889	0.027561443
210	0xbd7579b8	-0.059930533
211	0xbe021680	-0.12703896
212	0xbddc59c9	-0.10759313
213	0xbcd3c6e6	-0.025851678
214	0x3d14a4f2	0.036290117
215	0x3d30b369	0.04313985
216	0x3d3921df	0.045198318
217	0xbc1f8f6a	-0.009738782
218	0xbdc04b7c	-0.093893975
219	0xbe066cbd	-0.13127418
220	0xbd9f7d29	-0.07787544
221	0x3c766eb0	0.015041038
222	0x3d7219a0	0.05910647
223	0x3d2c3820	0.042045712
224	0x3cb46739	0.022021877
225	0xbd167502	-0.03673268
226	0xbdd07c78	-0.101799905
227	0xbdd49654	-0.10380235
228	0xbccf0136	-0.025269132
229	0x3d7ad6ed	0.061240125
230	0x3d9e7970	0.07738006
231	0x3d14f37a	0.03636501
232	0x3bb17273	0.0054152547
233	0xbd38f1e8	-0.045152575
234	0xbdaa4680	-0.08314228
235	0xbd58edeb	-0.05296127
236	0x3d0bef70	0.034163892
237	0x3dc9b4b3	0.09848919
238	0x3da75931	0.08171309
239	0x3cb7a6f6	0.02241848
240	0xbc45e58e	-0.012078656
241	0xbd4f879d	-0.05066644
242	0xbd7b96b5	-0.061423022
243	0xbbf5ac4d	-0.0074973465
244	0x3d9f19f1	0.0776862
245	0x3df0f155	0.117647804
246	0x3d9eb817	0.07749956
247	0x3c3a961d	0.011388329
248	0xbc8b654f	-0.017016081
249	0xbd2b8693	-0.041876387
250	0xbd041b3a	-0.032252528
251	0x3d011dfb	0.031522732
252	0x3dd3606c	0.103211254
253	0x3df19aa7	0.11797076
254	0x3d7c0f18	0.061537832
255	0xbb4e95c6	-0.0031522377

conv1.bias f4 [32]
0	0x3d191205	0.0373707
1	0x3d3454a5	0.044026036
2	0x3d89bda4	0.06725624
3	0x3cdedcd0	0.027204901
4	0x3d319e40	0.04336381
5	0x3cb79cb9	0.022413598
6	0x3c996f1c	0.018729739
7	0x3cd004ca	0.025392909
8	0xbb52481b	-0.0032086435
9	0x3dddf038	0.10836834
10	0x3d076d94	0.033063486
11	0x3d8bf3e5	0.068336286
12	0x3dc52a72	0.096272364
13	0x3d3ed6a4	0.046591416
14	0x3e5d5ed8	0.21618211
15	0x3d6b1276	0.057390653
16	0x3cf14671	0.029452534
17	0x3dc27b63	0.094961904
18	0x3d6ff2b5	0.058581073
19	0x3d4ac167	0.04950085
20	0x3d3e776a	0.0465006
21	0x3cdd3dac	0.027006947
22	0x3c7547ee	0.014970763
23	0x3d209935	0.03920861
24	0x3f2cc080	0.6748123
25	0x3b2cc8e9	0.002636487
26	0x3a34986f	0.00068891695
27	0x3dcd05cd	0.10010872
28	0x3d25a3d9	0.04043946
29	0x3e0da840	0.13833714
30	0x3da6cb5c	0.081442565
31	0x3cd25f6d	0.025680268

conv2.weight f4 [64, 32, 6, 6]
0	0xb9ddaf24	-0.00042282895
1	0x3b2e7a29	0.0026623106
2	0x3b817fc4	0.0039519984
3	0x3bb12163	0.0054055913
4	0x3bce4307	0.0062946114
5	0x3b9f6468	0.0048642643
6	0xb97e4825	-0.00024250204
7	0x3b0ba737	0.0021309385
8	0x3c054aff	0.008135556
9	0x3bdf414d	0.0068132044
10	0x3bffe13a	0.0078088315
11	0x3bece320	0.007229224
12	0x39571633	0.00020512268
13	0x398ff56d	0.00027457942
14	0x3c05c4cf	0.008164599
15	0x3b9fbffd	0.0048751817
16	0x3b99d715	0.004694829
17	0x3bdff516	0.0068346364
18	0x3b223a47	0.0024753974
19	0x3a860ca6	0.0010227158
20	0x3bcbe29c	0.0062220823
21	0x3b578fc6	0.0032892092
22	0xb9b5a5c4	-0.00034646515
23	0x3b856c66	0.00407176
24	0x3b5a38e2	0.0033298065
25	0x3b6b8d21	0.0035942274
26	0x3ba258d8	0.0049544387
27	0x3b32c0ec	0.0027275635
28	0xbb0f2b42	-0.0021845852
29	0x39c47167	0.00037468525
30	0x39aa5e05	0.00032494977
31	0x3bb8e582	0.005642594
32	0x3bb7db2c	0.005610844
33	0x3b250b20	0.0025183633
34	0xba98669f	-0.0011627263
35	0xbb0a6208	-0.002111556
36	0xbbb8a60e	-0.0056350296
37	0xbb4ecd42	-0.0031555449
38	0x39f1e527	0.00046137834
39	0x3b360331	0.0027772898
40	0x3a3288bb	0.00068105356
41	0x3af8d381	0.0018983932
42	0xbb8f45bf	-0.004372328
43	0xba3a917a	-0.00071170146
44	0x3b5aa49c	0.0033362275
45	0x3b7b8798	0.003838038
46	0x3adbd260	0.0016771071
47	0x3ba3eeab	0.0050028167
48	0xbb9801ff	-0.00463891
49	0xbab2908f	-0.0013623404
50	0x3b4ae5b8	0.0030959677
51	0x3b868d1f	0.0041061784
52	0x3b98faac	0.0046685543
53	0x3c2958e6	0.010336136
54	0xbb605267	-0.0034228803
55	0xbacf5949	-0.0015819456
56	0x3b5e2ed0	0.0033902414
57	0x3bba6b02	0.005689026
58	0x3bda28f7	0.0066577154
59	0x3c552308	0.01300884
60	0xbb2aec6e	-0.0026080864
61	0xbb003d6a	-0.0019567856
62	0x3af9ad4c	0.0019048839
63	0x3bb285c0	0.005448073
64	0x3b9769ad	0.004620752
65	0x3c24c42b	0.010056536
66	0xbb27be37	-0.0025595555
67	0xbb4bfdf0	-0.00311267
68	0x3aa8a8ba	0.0012867667
69	0x3b43ba04	0.0029865513
70	0x3a995d5b	0.0011700796
71	0x3b86e373	0.0041164695
72	0xbbf92807	-0.0076036486
73	0xbbe393ae	-0.006945095
74	0xbbb333cf	-0.0054688226
75	0xbb13ca9d	-0.0022551187
76	0xbb667b7f	-0.0035168824
77	0xbbdfe459	-0.006832641
78	0xbbf72b2c	-0.0075429883
79	0xbbde812c	-0.006790301
80	0xbbb00fbf	-0.005372971
81	0xbb116e6a	-0.0022191056
82	0xbb795323	-0.0038043938
83	0xbc02e839	-0.0079899365
84	0xbbce984b	-0.006304776
85	0xbbbbd688	-0.005732361
86	0xbb995dea	-0.004680385
87	0xbb0ba052	-0.0021305275
88	0xbb31dccd	-0.0027139664
89	0xbbfb3a10	-0.0076668337
90	0xba9e8351	-0.0012093579
91	0xbb1b8b78	-0.0023734253
92	0xbb10aa32	-0.00220741
93	0xbb26cc5f	-0.0025451405
94	0xbb27e32b	-0.002561758
95	0xbbd85065	-0.0066013806
96	0x3bd92634	0.0066268686
97	0x3b8cede9	0.004300822
98	0x3b0e8a33	0.0021749854
99	0xbb0b68c8	-0.0021272171
100	0xbba089db	-0.004899246
101	0xbbf87124	-0.007581847
102	0x3c70f890	0.014707699
103	0x3c4f28b6	0.012643984
104	0x3bed8048	0.0072479583
105	0xbaaf4100	-0.0013370812
106	0xbbf2ed43	-0.0074135377
107	0xbc32c13c	-0.0109103285
108	0x3ad75e06	0.0016431219
109	0x3b77d53f	0.0037816314
110	0x3c121cf0	0.008918032
111	0x3bce7db8	0.006301608
112	0x3b92fed5	0.0044859448
113	0x3b05734b	0.002036291
114	0x3b9a4957	0.00470845
115	0x3bcb89c4	0.0062114913
116	0x3c359ec6	0.011085218
117	0x3c0d3d66	0.008620596
118	0x3c05ba15	0.008162041
119	0x3bc249d6	0.005929212
120	0x3bd6c650	0.0065544024
121	0x3c055638	0.008138232
122	0x3c40aa96	0.011759421
123	0x3bf82639	0.007572916
124	0x3bfc37fd	0.007697104
125	0x3b446056	0.0029964647
126	0x3bd20626	0.0064094244
127	0x3bf84334	0.0075763706
128	0x3c18b195	0.009319683
129	0x3b235438	0.0024922024
130	0x3b310760	0.0027012452
131	0xbb7d488e	-0.0038647982
132	0x3ad6f954	0.001640121
133	0x3b37179d	0.0027937659
134	0x3b1172e2	0.002219372
135	0xbb9ed8ce	-0.0048476225
136	0xbbc51f23	-0.0060156747
137	0xbc2fb3af	-0.010723992
138	0xb9c88f49	-0.00038253728
139	0x3a8711a6	0.0010304942
140	0xbade932e	-0.0016981119
141	0xbc1f64d9	-0.009728634
142	0xbc3b71e4	-0.011440728
143	0xbc6a5f07	-0.014304883
144	0xbaabdf4c	-0.0013112812
145	0x3adee434	0.0017005266
146	0x3bb53e02	0.0055310735
147	0x3b13c192	0.0022545797
148	0x3bcc237b	0.0062298155
149	0x3b8f1bb7	0.0043673175
150	0xbb2c2798	-0.0026268717
151	0xb919178a	-0.00014599986
152	0x3bcc2fc5	0.0062312805
153	0x3baf5a4e	0.0053513413
154	0x3bad3a86	0.0052865176
155	0x3bf359fe	0.0074264994
156	0xba927290	-0.0011173058
157	0xba1063ac	-0.00055080163
158	0x3b9b5bbe	0.004741161
159	0x3bc53157	0.0060178447
160	0x3a47d71c	0.00076233014
161	0x3bc897cd	0.0061216117
162	0x3b0faf8a	0.0021924698
163	0x3b026ada	0.0019900114
164	0x3b44e77a	0.0030045197
165	0x3bc94989	0.0061427993
166	0xbb3a7bf5	-0.0028455232
167	0x3b3aa320	0.0028478578
168	0x3aeefdd6	0.0018233608
169	0x3ba48734	0.0050210003
170	0x3ba9daaa	0.0051835375
171	0x3bce3f8a	0.0062941955
172	0xba8a6010	-0.0010557193
173	0x3a1db47b	0.00060159684
174	0xbb841d96	-0.004031847
175	0x3ba13eb0	0.004920803
176	0x3bf96b9b	0.0076117045
177	0x3bce6fde	0.0062999567
178	0x3a8fcbea	0.0010970805
179	0x3ad63f05	0.0016345686
180	0xba5c7d95	-0.0008411047
181	0xba492625	-0.00076732255
182	0x3b418c90	0.0029533245
183	0x3b708e35	0.0036705856
184	0x3ba8551e	0.0051371
185	0x39a91ab2	0.0003225408
186	0xba6e38bb	-0.0009087433
187	0x3ad5df4a	0.0016317156
188	0x3b97fc9b	0.004638267
189	0x3ba105b5	0.0049140104
190	0x3bc6c58d	0.0060660304
191	0x3a90b718	0.0011040894
192	0xbb2c4379	-0.0026285334
193	0x3abbd710	0.0014331061
194	0x3b935a82	0.0044968734
195	0x3b8c436d	0.0042804987
196	0x3bb3f707	0.0054920944
197	0x3aff0a6c	0.0019458062
198	0xbb7c255f	-0.0038474423
199	0xbaa16b10	-0.0012315232
200	0x3b2f277e	0.002672642
201	0x3ae02182	0.001709983
202	0x3b97611c	0.0046197306
203	0x3b0d19cf	0.0021530276
204	0xbb5e3c21	-0.0033910351
205	0xbb851db3	-0.0040623783
206	0xba3a3c6a	-0.00071043393
207	0xbb1bfe82	-0.0023802822
208	0x3ae131e1	0.0017181003
209	0x3a3a554b	0.00071080466
210	0xbaf52fbc	-0.0018706243
211	0xbbaaf92d	-0.0052176923
212	0xbb9165b0	-0.004437171
213	0xbbbae261	-0.005703256
214	0xbb0f7613	-0.0021890446
215	0xba825f8d	-0.0009946689
216	0xbbb8156b	-0.0056177876
217	0xbb9e8b9b	-0.0048384196
218	0xbb6ae119	-0.0035839735
219	0xbb2ddf92	-0.0026530963
220	0xbb49b202	-0.0030776267
221	0xbb1defc1	-0.0024099203
222	0xbb75cf74	-0.0037507685
223	0xbb031287	-0.0020000057
224	0xba33acb9	-0.0006854046
225	0xb9ebf9dc	-0.00045008853
226	0xb9ff5421	-0.0004870007
227	0x39a1bae7	0.00030847566
228	0xbabcc522	-0.0014402012
229	0x39f28bbe	0.00046261953
230	0x3b14a63e	0.0022682096
231	0x3b49927a	0.0030757473
232	0x3b5ebb20	0.0033986047
233	0x3b73dfe6	0.0037212311
234	0x395ef7ed	0.0002126393
235	0x3b2af2db	0.0026084695
236	0x3b9add7a	0.004726109
237	0x3bc939b5	0.0061409124
238	0x3bc52c46	0.0060172407
239	0x3bab505b	0.005228085
240	0x39a5ffce	0.00031661842
241	0x3b0ccfd3	0.0021486178
242	0x3b98e880	0.004666388
243	0x3bb97efd	0.00566089
244	0x3ba58cb9	0.005052176
245	0x3b53e4da	0.003233245
246	0xbad4af8f	-0.0016226637
247	0xba20bf4d	-0.00061320217
248	0x3ad71422	0.0016409198
249	0x3b241da3	0.002504208
250	0x3ac17f60	0.0014762692
251	0xba0d6a7b	-0.000539459
252	0xbb889289	-0.004167859
253	0xbb130e75	-0.0022439037
254	0x37e888ab	2.7720196e-05
255	0x3adc4cb6	0.001680753

conv2.bias f4 [64]
0	0xbc3f1ee3	-0.011665079
1	0xbb3059a4	-0.0026908899
2	0xbd87d8df	-0.06633162
3	0xbb224996	-0.00247631
4	0x3d3eb895	0.04656275
5	0xbaaa0d5a	-0.001297395
6	0xbbba48a4	-0.005684929
7	0x3cc46b6a	0.023977
8	0x3cae6061	0.021286191
9	0x3cf7dd9b	0.030257037
10	0x3d0ebeab	0.034849804
11	0x3ca4b77d	0.020107025
12	0xbb46c164	-0.0030327672
13	0xb9bd3e66	-0.0003609538
14	0x3b88a45f	0.004169985
15	0x3bc4177a	0.005984244
16	0x3d01ac2b	0.031658333
17	0x3cd9552e	0.026529875
18	0x3d03d5bd	0.03218626
19	0xbbc84f0c	-0.0061129387
20	0x3be9d28c	0.007135695
21	0xbad4a3d5	-0.0016223142
22	0x3c5610f5	0.013065566
23	0x3d26a727	0.040686753
24	0x3b1b302a	0.002367983
25	0xbd16e4e6	-0.03683939
26	0x3d085eff	0.03329372
27	0xbb28910b	-0.0025721218
28	0x3cd04642	0.025424127
29	0xbbf3a14f	-0.007435001
30	0x3b0b9783	0.0021300025
31	0x3ca257de	0.019817289
32	0xb7ef1793	-2.8501998e-05
33	0x3b04816f	0.002021875
34	0x3c07bebd	0.008285222
35	0x3ad53b01	0.0016268195
36	0x3b6a2457	0.0035727227
37	0xbb396b62	-0.0028292765
38	0x3b5bd19d	0.0033541687
39	0xbaf72592	-0.0018855801
40	0x3b1ec679	0.0024227186
41	0xbc26a0fc	-0.010170218
42	0x3b29be67	0.0025900842
43	0x3d258628	0.040411144
44	0x3d3988ab	0.045296352
45	0xbc413a37	-0.011793665
46	0x3d14d012	0.036331244
47	0x3c0feeb0	0.008784935
48	0x39b2ec7f	0.0003412701
49	0xbb55911e	-0.0032587717
50	0x3c94bd55	0.018156687
51	0x3bb81f13	0.0056189387
52	0xb92ae024	-0.00016295962
53	0xb9e1065c	-0.00042920082
54	0xb971cbb8	-0.00023059442
55	0xbbf7ecf4	-0.007566089
56	0x3cda33cd	0.026636029
57	0x3ce1bc24	0.027555533
58	0x3cc42180	0.023941755
59	0x3ab2fbd8	0.0013655378
60	0xb932503b	-0.00017005291
61	0x3b0bf339	0.0021354689
62	0xbbab2c9b	-0.0052238232
63	0x3d5af9a0	0.053460717

conv3.weight f4 [64, 64, 5, 5]
0	0xba0aea47	-0.0005299192
1	0x394d5bfd	0.00019584592
2	0x38ed1e4f	0.00011306686
3	0xb80c746a	-3.348702e-05
4	0x39ac0f1c	0.00032817654
5	0xba5123db	-0.000797806
6	0x394b86ed	0.00019409852
7	0x3a062abe	0.00051180634
8	0x39d3a44d	0.0004036747
9	0x3984e5d6	0.00025348243
10	0xb9e0d8dc	-0.00042886182
11	0xb900934d	-0.00012261905
12	0xba0873ff	-0.0005205273
13	0xb9cd00ea	-0.00039101328
14	0xb89cd8d0	-7.479044e-05
15	0x3a091c26	0.00052303297
16	0xb836380e	-4.3444386e-05
17	0xbab3c95a	-0.0013716624
18	0xbaa9e7bc	-0.0012962739
19	0xb9f6b87e	-0.00047058234
20	0x3a33f47b	0.00068647385
21	0x37ce3327	2.4580933e-05
22	0xba6b2a43	-0.0008970836
23	0xba318cb7	-0.00067729823
24	0xb99e4ccf	-0.00030193335
25	0xba02a1d1	-0.0004983219
26	0xba55b1ff	-0.00081518287
27	0x3945d02f	0.00018864938
28	0x39c462e7	0.0003745772
29	0xb98bd295	-0.00026669042
30	0x380d813e	3.3737386e-05
31	0xba1dc77a	-0.0006018799
32	0xba0aab56	-0.0005289813
33	0x39a5b4fb	0.00031606093
34	0x38e08951	0.000107067295
35	0x3a4716dc	0.0007594654
36	0x39bbc59b	0.00035814647
37	0x348300e4	2.44013e-07
38	0x36fbea39	7.50765e-06
39	0xb9474ba1	-0.00019006293
40	0x389b11c9	7.394289e-05
41	0x38f4f414	0.0001168029
42	0x398167fd	0.00024682275
43	0x39c752dd	0.00038017976
44	0x3912ebea	0.0001401153
45	0x38131ec0	3.507617e-05
46	0x389d8949	7.511915e-05
47	0xb8d953af	-0.000103629536
48	0x3993f487	0.00028220212
49	0x3a3e6805	0.0007263425
50	0xb993eaeb	-0.00028213052
51	0xba0b46fe	-0.0005313008
52	0xb9f9e3a1	-0.00047662578
53	0xb96bc026	-0.00022482927
54	0xb7b3e6bc	-2.1445907e-05
55	0xba0b9ff3	-0.00053262635
56	0xba1dd3fd	-0.00060206634
57	0xb9f488b4	-0.00046641158
58	0xb9bf3e42	-0.00036476745
59	0xb9c60e2d	-0.00037776065
60	0xba26fd01	-0.0006370098
61	0xba06012b	-0.00051118684
62	0xb99308ad	-0.0002804449
63	0xb9ff7013	-0.00048720892
64	0xba318b10	-0.0006772736
65	0xba1cd5a1	-0.0005982761
66	0xba011a0c	-0.0004924841
67	0xb937a352	-0.00017513082
68	0xb9eb2fd3	-0.00044858325
69	0xba41ceab	-0.00073931616
70	0xb9efbb68	-0.0004572526
71	0xb9f5c05e	-0.00046873366
72	0xb95d2c9e	-0.00021092824
73	0xb9b3a48a	-0.00034264132
74	0xba1c5761	-0.0005963948
75	0xba02de3a	-0.0004992221
76	0xba0173c3	-0.00049382093
77	0xb9858547	-0.00025467036
78	0xb78f71b1	-1.709987e-05
79	0x39a48321	0.00031378216
80	0xb8f349c0	-0.0001160088
81	0x39a5ad57	0.000316004
82	0x392aaa26	0.00016275849
83	0x37bf093c	2.2773274e-05
84	0x394381ae	0.00018644959
85	0xb96478a0	-0.00021788711
86	0x38c7a5d3	9.5199466e-05
87	0xb8c69881	-9.469782e-05
88	0x3931fe8a	0.00016974859
89	0x39ba1de4	0.00035498955
90	0xb9ef4bd7	-0.00045642137
91	0xba045ae4	-0.0005048944
92	0xba05cbd8	-0.00051039224
93	0xb8dbcb12	-0.000104805586
94	0x38bb9c06	8.9459165e-05
95	0xb9d82063	-0.0004122286
96	0xba27c372	-0.0006399668
97	0xba108f6d	-0.0005514536
98	0xb9c24880	-0.0003705658
99	0xb96a8fd0	-0.00022369553
100	0xba22ab5c	-0.0006205344
101	0xba946d80	-0.0011324137
102	0xb9feeb87	-0.00048622137
103	0x389bbb1c	7.425828e-05
104	0x392b9e1a	0.00016366728
105	0xb98e8b31	-0.00027188056
106	0xb9b45d3d	-0.00034401743
107	0x3a077041	0.00051665684
108	0x3a3f8aa1	0.0007306729
109	0x39a66453	0.00031736735
110	0xb959c26b	-0.00020767159
111	0xb9b3a215	-0.000342623
112	0x3a253c6f	0.0006303256
113	0x3a896650	0.0010482762
114	0x3a07206c	0.00051546725
115	0xb8c76183	-9.5072224e-05
116	0xb949168b	-0.00019177252
117	0x39eb4cf4	0.00044880027
118	0x3a71c4a9	0.0009222725
119	0x3a20b39b	0.0006130279
120	0x3a14746c	0.00056631
121	0x3a7f2fbf	0.0009734593
122	0x3a9a2d56	0.0011762779
123	0x3a5d172a	0.00084339327
124	0x3a06882c	0.00051319855
125	0xb8bed7dd	-9.100114e-05
126	0xba0ea479	-0.00054413785
127	0xba05a7ae	-0.00050985336
128	0xba508515	-0.0007954401
129	0xb9c3da49	-0.00037355933
130	0x3a2ad1dc	0.0006516257
131	0x3978d7fc	0.00023731583
132	0xb9f30df5	-0.0004635897
133	0xba91df86	-0.0011129237
134	0xb96e7eb3	-0.00022744648
135	0x3a7c09d1	0.00096145
136	0x3a0a7b9d	0.0005282702
137	0xb95f18dd	-0.000212762
138	0xba73ceba	-0.0009300519
139	0xb8973a91	-7.21115e-05
140	0x3a0c5b37	0.0005354168
141	0x39f6a106	0.00047040748
142	0x39872e7d	0.00025783843
143	0xb8d8b99f	-0.00010334257
144	0xb91c64f0	-0.00014914921
145	0x39c8ea72	0.00038321648
146	0x39ef46da	0.0004563842
147	0x39a9e8e2	0.00032407703
148	0x37e5d6e0	2.7398986e-05
149	0xb981da1a	-0.00024767296
150	0x39bdd91c	0.00036210648
151	0x3916f75b	0.00014397262
152	0x3a4de84f	0.0007854746
153	0xb9d9865f	-0.0004148958
154	0xba46079f	-0.0007554236
155	0x39b8d3ea	0.00035253103
156	0xba339ab1	-0.0006851359
157	0xba3c803b	-0.00071907387
158	0xba2297c9	-0.00062024273
159	0xba232c01	-0.00062245136
160	0x38e52b92	0.000109276865
161	0xba390fc8	-0.00070595415
162	0xba466b5a	-0.0007569097
163	0xb9dd3cbf	-0.00042197664
164	0xb9802acb	-0.00024445946
165	0xb8822926	-6.2065476e-05
166	0xb9dcd853	-0.00042122844
167	0xba42e9ef	-0.00074353715
168	0xba4c5cbe	-0.0007795802
169	0xb9fe94a8	-0.00048557413
170	0x39981b54	0.0002901206
171	0x39734874	0.00023201277
172	0xba7515cf	-0.0009349258
173	0xba8b82b3	-0.001064381
174	0xb9969a0f	-0.00028725012
175	0x39ebd32c	0.00044980028
176	0x39c8289e	0.00038177235
177	0xb9ee9f6e	-0.00045513682
178	0xb9cf8238	-0.00039579137
179	0x38a8c30a	8.047193e-05
180	0x3a118276	0.0005550751
181	0x39cf590d	0.00039548465
182	0xb9f388f8	-0.0004645062
183	0xba5ace9b	-0.00083468267
184	0xb99b728a	-0.00029649242
185	0x399540f4	0.00028467888
186	0xb8bbe1ce	-8.958914e-05
187	0xb9a80b12	-0.00032051705
188	0xb95bafb7	-0.00020950926
189	0x38a33473	7.782215e-05
190	0x3a2b68cb	0.00065387477
191	0x3a325b4a	0.0006803764
192	0xb9ea8f66	-0.00044738798
193	0x391421ce	0.00014126973
194	0x3a0eb518	0.0005443855
195	0x39b0cf4b	0.0003372378
196	0x3a2f3547	0.0006683659
197	0xb9f6f479	-0.00047102923
198	0xb8c289b0	-9.276287e-05
199	0x3a1ae71a	0.00059090706
200	0x3a9daad5	0.0012029061
201	0x3a14b02c	0.00056720036
202	0xb9897224	-0.00026215718
203	0x39892686	0.00026159378
204	0x39294ca6	0.0001614565
205	0x3a92a033	0.0011186659
206	0x39c7a2a2	0.0003807741
207	0xba21bba1	-0.00061696215
208	0xb8bd2348	-9.018794e-05
209	0x391b325d	0.00014800714
210	0x3a1955c1	0.0005849265
211	0x39cda2ea	0.00039222027
212	0xba3b2f25	-0.0007140509
213	0xb98678af	-0.00025648388
214	0x399edf16	0.0003030232
215	0x380926f1	3.2699612e-05
216	0x3a3d898a	0.0007230273
217	0xb87e220b	-6.0590024e-05
218	0xb97612e1	-0.00023467421
219	0x390556a7	0.00012716149
220	0xb9fa330b	-0.00047721746
221	0x39f2757b	0.00046245367
222	0x39d57f5e	0.00040721422
223	0xb972ab98	-0.00023142842
224	0xb91732d1	-0.00014419413
225	0x3a8194f4	0.000988631
226	0x3a96fb74	0.0011519031
227	0xb916c3ea	-0.00014378098
228	0xb9980ff1	-0.00029003576
229	0x39b88247	0.0003519228
230	0x3975474f	0.00023391585
231	0x3a07b708	0.0005177115
232	0xb95fb20b	-0.00021333263
233	0xba1d4563	-0.0005999414
234	0xb99d4278	-0.00029994897
235	0x391663b9	0.00014342264
236	0x3a3c752c	0.0007189091
237	0x3995545d	0.0002848235
238	0xb93da5a9	-0.00018086158
239	0x383c0d11	4.4834862e-05
240	0x3982a7df	0.00024920606
241	0x3a46f7bb	0.00075900153
242	0x3937c486	0.0001752545
243	0xb9557f47	-0.00020360677
244	0x3a0611ac	0.00051143277
245	0xb906fca9	-0.00012873359
246	0xb98010d9	-0.00024426615
247	0xba0d5eff	-0.00053928787
248	0xba36eebe	-0.00069783244
249	0x38cba376	9.710241e-05
250	0x37db8312	2.6167869e-05
251	0xba154d3e	-0.0005695409
252	0xba300704	-0.00067149126
253	0xb9c7bc4d	-0.00038096533
254	0x3932cc58	0.00017051527
255	0x39442585	0.00018705994

conv3.bias f4 [64]
0	0x39b6b691	0.00034849768
1	0x3bd53a83	0.0065072193
2	0x3c1094f7	0.0088245785
3	0x3c0fe485	0.008782511
4	0x37293e8f	1.00877505e-05
5	0x3b243ccd	0.0025060654
6	0x3b40ee9c	0.0029439097
7	0x3b372f7b	0.0027951885
8	0x3ba51fc8	0.005039189
9	0x3c15a5b3	0.009133744
10	0x3c4c4603	0.012467864
11	0x3c27176f	0.010198458
12	0xba704f67	-0.00091671053
13	0x3c663f47	0.014053172
14	0x3c277a93	0.010222095
15	0x3b929c4b	0.004474198
16	0x3a6e45d5	0.0009089385
17	0x3bc21318	0.0059226863
18	0x3b8f4d63	0.004373239
19	0xb7e6bab4	-2.7505077e-05
20	0x3c303840	0.010755599
21	0x3c3c48da	0.011491979
22	0x3ae09eaf	0.0017137135
23	0x3c14e936	0.009088805
24	0x3c2cd5d0	0.010549024
25	0x3c3b308d	0.01142515
26	0x3c2849c3	0.010271492
27	0x3a635dac	0.0008673321
28	0x3aebe1e6	0.00179964
29	0x3a4cd64f	0.0007813917
30	0x3c2f3a76	0.0106950905
31	0x3bd7f85d	0.0065908865
32	0x3b3b8000	0.002861023
33	0xb9e5107a	-0.0004369056
34	0x3a27b030	0.00063967984
35	0x3b6c1906	0.0036025657
36	0x3bc9d47f	0.0061593647
37	0x3b3429b3	0.0027490675
38	0x3c2b1472	0.010441886
39	0xbaa838ca	-0.0012834307
40	0x3ba9db1a	0.0051835896
41	0x3b409685	0.0029386592
42	0x3c22d6d0	0.009938911
43	0x3a698fdb	0.0008909681
44	0x3c80c25f	0.015717683
45	0x3c1b9587	0.009496099
46	0xbacbd310	-0.0015550572
47	0xba80d117	-0.0009827939
48	0x3be3ecca	0.0069557177
49	0x3bcb7179	0.0062085954
50	0x39341491	0.000171738
51	0x39a8aa36	0.00032170274
52	0x3b656722	0.00350041
53	0x3ad8066f	0.001648141
54	0x3c23a11a	0.00998714
55	0x3c125884	0.008932237
56	0x3af1664f	0.0018417331
57	0x3b86cb58	0.004113596
58	0x3bb8338d	0.0056213797
59	0x3b2ba12a	0.002618859
60	0x3c2ca56c	0.0105374865
61	0x3ba3f00e	0.005002982
62	0x3bb9ed91	0.005674072
63	0x3bb89623	0.005633132

fc.weight f4 [10, 256]
0	0xb9e9fc11	-0.00044629027
1	0xbae8c629	-0.0017759252
2	0xb9f9a09b	-0.0004761264
3	0xbaa995fb	-0.0012938374
4	0xbd844eab	-0.06460317
5	0xbd8b2fe3	-0.06796243
6	0xbd5aec67	-0.053448107
7	0xbcd3feb5	-0.02587829
8	0xbcf800e2	-0.030273858
9	0xbb046014	-0.0020198869
10	0xbcf399f9	-0.029736506
11	0x3b834920	0.00400652
12	0xbd4a8cff	-0.04945087
13	0xbd66d17f	-0.056352135
14	0xbd230fad	-0.03980987
15	0xbd364b80	-0.044505596
16	0x3d7ed4b2	0.06221456
17	0x3d25888a	0.040413417
18	0x3d66c5d7	0.05634102
19	0x3d171e7b	0.036894303
20	0xbccffc52	-0.02538887
21	0xbca5c842	-0.020237092
22	0xbb995e31	-0.004680418
23	0xbcb2f358	-0.021844551
24	0x3dc32e01	0.09530259
25	0x3db4ce86	0.08828454
26	0x3e162e76	0.14666161
27	0x3e091a08	0.13388836
28	0x3d8e969d	0.06962321
29	0x3d90201e	0.07037376
30	0x3da1e78b	0.079054914
31	0x3dab984c	0.08378658
32	0xbc64cc1a	-0.013964677
33	0xbbbc6db0	-0.0057503805
34	0xbc333502	-0.010937931
35	0xbbf5e4ca	-0.0075040804
36	0xbd2a351a	-0.041554548
37	0xbd64d368	-0.055865675
38	0xbd19f8dd	-0.03759085
39	0xbd68fbed	-0.05688088
40	0xbd017cd1	-0.031613175
41	0xbd2deb6e	-0.04246085
42	0xbd26733d	-0.040637244
43	0xbd276682	-0.040869243
44	0xbd8b8c01	-0.06813813
45	0xbd61a5c1	-0.055089716
46	0xbd9b5c99	-0.07586021
47	0xbd84ad1c	-0.064783305
48	0x3d40fb35	0.04711457
49	0x3d2f9d54	0.04287465
50	0x3d1a0c89	0.03760961
51	0x3caacdce	0.020850088
52	0xbd5778cc	-0.052605435
53	0xbd95e47e	-0.07318972
54	0xbd423e9e	-0.047422998
55	0xbd8caaaf	-0.06868493
56	0xbc7ebf71	-0.015548573
57	0xbc84a1b5	-0.01619039
58	0xbc705463	-0.014668557
59	0xbc2097bd	-0.009801802
60	0xbc38bf42	-0.011276068
61	0xbc220b5b	-0.009890403
62	0xbc89695e	-0.016773876
63	0xbc21763a	-0.009854848
64	0x3d4fdfb8	0.050750464
65	0x3d5e3682	0.0542512
66	0x3d10f2cd	0.035387803
67	0x3d1d9df9	0.038480733
68	0x3d7111e6	0.05885496
69	0x3d830344	0.06397107
70	0x3d9817f0	0.07426441
71	0x3d902b6e	0.070395336
72	0xbcf843cb	-0.030305764
73	0xbc44b85d	-0.012006846
74	0xbcd7f07b	-0.026359787
75	0xbbc4f595	-0.006010721
76	0xbc841b7e	-0.01612639
77	0xbc96e267	-0.018418504
78	0xbc48355b	-0.012219752
79	0xbca4461c	-0.020052962
80	0xbb933208	-0.004492048
81	0xbcd8dd1b	-0.026472619
82	0xbd05b2fe	-0.032641403
83	0xbca77419	-0.020441102
84	0x3d847f86	0.06469636
85	0x3d347d91	0.044065062
86	0x3d8a13b7	0.067420416
87	0x3d701934	0.058617786
88	0x3d192a6b	0.03739397
89	0x3d322e98	0.043501467
90	0x3cf012e2	0.029305879
91	0x3d0eeb7c	0.034892544
92	0xbd1875ab	-0.037221592
93	0xbc906075	-0.01762412
94	0xbcdb4a6b	-0.026768884
95	0xbc7d346d	-0.015454394
96	0xbdc6cbda	-0.0970685
97	0xbdb8f17b	-0.09030434
98	0xbdcdd155	-0.100496925
99	0xbd97915c	-0.07400772
100	0xbe22c26b	-0.15894477
101	0xbdf5559f	-0.119792216
102	0xbe316067	-0.17321931
103	0xbdfa49c2	-0.122210994
104	0x3d9db8b1	0.07701243
105	0x3d644f52	0.05573971
106	0x3d8f45ab	0.0699571
107	0x3d735bc3	0.059413683
108	0x3b024b82	0.0019881432
109	0x3bbe6428	0.0058102794
110	0xbae7d1ae	-0.0017686391
111	0x3bb8b8c2	0.005637259
112	0x3cd4adbf	0.025961755
113	0x3d49519b	0.04915009
114	0xbc0c795b	-0.008573855
115	0xbb16be90	-0.0023001768
116	0xbb4b27d4	-0.0030999081
117	0xbbb24080	-0.005439818
118	0xbb612259	-0.0034352748
119	0xbbdbb212	-0.0067045772
120	0xbd9423b2	-0.07233371
121	0xbd7a89d8	-0.061166614
122	0xbd735a44	-0.059412256
123	0xbcf42ef8	-0.029807553
124	0xbd347695	-0.0440584
125	0xbcd14f31	-0.025550457
126	0xbd623672	-0.055227704
127	0xbcb75886	-0.022381078
128	0x3daf7bb4	0.085685164
129	0x3d72aae0	0.05924499
130	0x3d629a74	0.05532308
131	0x3d0a7ef0	0.033812463
132	0x3e165c65	0.14683683
133	0x3e019aa0	0.12656641
134	0x3e1d89fb	0.15384667
135	0x3df88f2d	0.121366836
136	0x3df7c2e5	0.1209772
137	0x3e00e28a	0.12586418
138	0x3de18ce5	0.110132016
139	0x3dc9fe97	0.09863012
140	0xbd193312	-0.03740222
141	0xbd274ebe	-0.04084658
142	0xbd11522e	-0.035478763
143	0xbd3a6597	-0.04550704
144	0xbc3fb813	-0.011701602
145	0x3bf3ef7f	0.0074443216
146	0xbcbfa049	-0.02339186
147	0x3baae4d4	0.0052152667
148	0x3dedf3d8	0.11618775
149	0x3de432b3	0.111424826
150	0x3db77cea	0.08959372
151	0x3d9ef22e	0.07761036
152	0xbd8d61d9	-0.069034286
153	0xbd799909	-0.06093696
154	0xbd7c2e38	-0.061567515
155	0xbd58f66b	-0.052969377
156	0x3cc6f84e	0.024288323
157	0x3d142163	0.036164653
158	0x3c861447	0.01636709
159	0x3cf41144	0.02979339
160	0xbce8e075	-0.028427342
161	0xbca7e6dc	-0.020495825
162	0xbcb484c2	-0.02203596
163	0xbc6d995d	-0.014501897
164	0x3c0d24a2	0.008614691
165	0x3b569255	0.003274103
166	0xb9259126	-0.00015789698
167	0xbc201fa4	-0.009773169
168	0xbdc2d08e	-0.09512435
169	0xbddfc744	-0.10926679
170	0xbdc79fae	-0.09747253
171	0xbdba127f	-0.09085559
172	0x3c421f71	0.0118483165
173	0x3be29668	0.0069149025
174	0x3c714d80	0.01472795
175	0x3beac7b2	0.007164919
176	0xbd85d5b0	-0.06534898
177	0xbd78f678	-0.060781926
178	0xbda22dc3	-0.079188846
179	0xbd5ca60a	-0.053869285
180	0xbb7fafcc	-0.0039014695
181	0xbd1f1563	-0.038838755
182	0xbc8a9855	-0.01691834
183	0xbd08f070	-0.033432424
184	0x3d888a0c	0.06666955
185	0x3d1e4b3c	0.038645968
186	0x3da5bed7	0.080930404
187	0x3c848834	0.016178228
188	0x3d357854	0.044304207
189	0x3d12d7af	0.035850223
190	0x3cf9d92c	0.030499063
191	0x3cda8261	0.026673498
192	0x398486d5	0.0002527746
193	0x399f0f20	0.00030338112
194	0xbc1b806b	-0.009491066
195	0xbbc104ea	-0.0058904784
196	0xbd66d590	-0.056356013
197	0xbd8014ed	-0.06253991
198	0xbca20afa	-0.019780625
199	0xbd3ccf43	-0.046096098
200	0xbc412db7	-0.011790684
201	0xb9bb8b00	-0.00035770983
202	0xbb5b2ff2	-0.0033445326
203	0xbba1ef4e	-0.0049418574
204	0x3a0db38c	0.0005405478
205	0x39981401	0.00029006603
206	0x382bd594	4.0968487e-05
207	0x37740183	1.4543885e-05
208	0x3be75806	0.0070600538
209	0x3c4da743	0.012552085
210	0xbc0a4084	-0.008438233
211	0xbc6bb919	-0.014387392
212	0xbc694be7	-0.014239288
213	0xbcaa0411	-0.020753892
214	0xbc6722be	-0.014107404
215	0xbcd45c12	-0.025922809
216	0xbc07051e	-0.008240966
217	0xbbb56a3e	-0.0055363467
218	0x3cef1758	0.029185936
219	0x3d074580	0.033025265
220	0xbd2faf89	-0.042892013
221	0xbd427e2f	-0.04748362
222	0xbd845632	-0.06461753
223	0xbd82e8bb	-0.06392046
224	0xb94e3cdb	-0.00019668361
225	0x3b8672b6	0.00410303
226	0xbc6f4714	-0.014604349
227	0xbb8ec96c	-0.0043575075
228	0xbcd28ddc	-0.02570241
229	0xbcf6cfdf	-0.030128418
230	0xbd1419da	-0.036157466
231	0xbd5999f9	-0.053125355
232	0x3d9a149e	0.07523464
233	0x3ddc54ba	0.10758348
234	0x3dceb1d1	0.100925095
235	0x3dcd6b0e	0.10030185
236	0x3d9adae4	0.07561281
237	0x3d07f715	0.03319462
238	0x3dd49854	0.10380617
239	0x3d008d41	0.03138471
240	0xbd9f3ff5	-0.07775871
241	0xbdb3c2bd	-0.08777378
242	0xbda044e0	-0.07825637
243	0xbdb81d15	-0.08989922
244	0xbd91885a	-0.07106085
245	0xbd55d3ca	-0.05220393
246	0xbda1428e	-0.078740224
247	0xbd5f7229	-0.05455223
248	0x3d90c39d	0.0706856
249	0x3db85287	0.09000116
250	0x3daf911a	0.08572598
251	0x3dc9141f	0.09818291
252	0x3ddca74a	0.10774095
253	0x3df9a58c	0.12189779
254	0x3dded145	0.10879759
255	0x3df8cb65	0.121481694

fc.bias f4 [10]
0	0xbc8fa2a4	-0.017533608
1	0xbc7e0cb8	-0.015505962
2	0x3bb33a58	0.0054696016
3	0x3c31a455	0.010842402
4	0x3c360ee7	0.011111951
5	0x3b181756	0.0023207269
6	0x3b33bc72	0.0027425555
7	0x3aa3ce47	0.0012497389
8	0x39917398	0.0002774268
9	0xba7f8203	-0.0009746851

bn1.weight f4 [32]
0	0x3db58718	0.08863658
1	0x3f090a08	0.5353093
2	0x3f7f95ff	0.9983825
3	0x3e283498	0.16426313
4	0x3f795285	0.9739154
5	0x3f2ae9e7	0.66763157
6	0x3ebc07d6	0.36724728
7	0x3f515a3a	0.817783
8	0x3f3e1568	0.74251413
9	0x3e818206	0.25294513
10	0x3f3fa70d	0.74864274
11	0x3f6c8b4b	0.92400044
12	0x3eeaa2aa	0.45827228
13	0x3e3e0728	0.18557417
14	0x3e6ec7b0	0.23318362
15	0x3e8363ba	0.25662023
16	0x3eccf00e	0.40026897
17	0x3d545630	0.051840007
18	0x3e8e1066	0.27746886
19	0x3e48b06c	0.1959855
20	0x3ed0f45a	0.40811425
21	0x3a932a00	0.0011227727
22	0x3ee62794	0.4495207
23	0x3f6b3486	0.9187702
24	0x3e94f288	0.29091287
25	0x3f753a34	0.95791936
26	0x3ebbc0e8	0.36670613
27	0x3ed8c958	0.42341113
28	0x3c542100	0.012947321
29	0x3f225c71	0.63422304
30	0x3e95179e	0.2911958
31	0x3df87ad8	0.121328056

bn1.bias f4 [32]
0	0x00000000	0.0
1	0x00000000	0.0
2	0x00000000	0.0
3	0x00000000	0.0
4	0x00000000	0.0
5	0x00000000	0.0
6	0x00000000	0.0
7	0x00000000	0.0
8	0x00000000	0.0
9	0x00000000	0.0
10	0x00000000	0.0
11	0x00000000	0.0
12	0x00000000	0.0
13	0x00000000	0.0
14	0x00000000	0.0
15	0x00000000	0.0
16	0x00000000	0.0
17	0x00000000	0.0
18	0x00000000	0.0
19	0x00000000	0.0
20	0x00000000	0.0
21	0x00000000	0.0
22	0x00000000	0.0
23	0x00000000	0.0
24	0x00000000	0.0
25	0x00000000	0.0
26	0x00000000	0.0
27	0x00000000	0.0
28	0x00000000	0.0
29	0x00000000	0.0
30	0x00000000	0.0
31	0x00000000	0.0

bn2.weight f4 [64]
0	0x3e814456	0.2524745
1	0x3f16ca43	0.58902377
2	0x3e8216e2	0.25408083
3	0x3e0d2024	0.13781792
4	0x3f0f941c	0.5608537
5	0x3f7a250f	0.97712797
6	0x3f0a1062	0.5393125
7	0x3f476cc7	0.77900356
8	0x3ef775c0	0.48332024
9	0x3eeca966	0.4622299
10	0x3f78f7bf	0.9725303
11	0x3f0ace34	0.5422089
12	0x3dcee0a8	0.101014435
13	0x3f4afb07	0.7928929
14	0x3f609b42	0.87736905
15	0x3c90be60	0.017668903
16	0x3f3471c3	0.70486087
17	0x3f659c91	0.89692026
18	0x3f6ecff1	0.93286043
19	0x3ec61bb0	0.38693
20	0x3f673d5a	0.9032799
21	0x3d9fc870	0.07801902
22	0x3f4074a8	0.75178003
23	0x3f1c6b73	0.61101454
24	0x3d57cdf0	0.05268663
25	0x3f1b529a	0.60672915
26	0x3f074b48	0.52849245
27	0x3f3cb8c5	0.73719436
28	0x3f49747c	0.78693366
29	0x3d6dfd80	0.058103085
30	0x3ed7cf44	0.4215032
31	0x3f0822f2	0.5317832
32	0x3ecd1678	0.40056205
33	0x3e745248	0.23859513
34	0x3ec0dcda	0.37668496
35	0x3f3c536b	0.73564786
36	0x3f7cb425	0.9871238
37	0x3f096dd9	0.5368324
38	0x3c492d40	0.012278855
39	0x3f72960a	0.9476019
40	0x3d184610	0.03717619
41	0x3f48fdf5	0.7851251
42	0x3f6d51ed	0.92703134
43	0x3e97a2e2	0.29616457
44	0x3f499a4c	0.78751063
45	0x3ec14204	0.37745678
46	0x3f6e7818	0.93152
47	0x3df76788	0.12080294
48	0x3ee2af7c	0.4427451
49	0x3f10eab7	0.56608146
50	0x3f3f2e39	0.74679905
51	0x3f38783e	0.72058475
52	0x3eeee780	0.46660995
53	0x3e7d389c	0.24728626
54	0x3e22fde8	0.1591717
55	0x3f62c02f	0.885745
56	0x3e8369cc	0.25666654
57	0x3ee57420	0.4481516
58	0x3e843e84	0.25828946
59	0x3f3c7ad0	0.73624897
60	0x3f3bf410	0.73419285
61	0x3f03355b	0.5125329
62	0x3ed8dce6	0.42356032
63	0x3eedbc44	0.46432698

bn2.bias f4 [64]
0	0x00000000	0.0
1	0x00000000	0.0
2	0x00000000	0.0
3	0x00000000	0.0
4	0x00000000	0.0
5	0x00000000	0.0
6	0x00000000	0.0
7	0x00000000	0.0
8	0x00000000	0.0
9	0x00000000	0.0
10	0x00000000	0.0
11	0x00000000	0.0
12	0x00000000	0.0
13	0x00000000	0.0
14	0x00000000	0.0
15	0x00000000	0.0
16	0x00000000	0.0
17	0x00000000	0.0
18	0x00000000	0.0
19	0x00000000	0.0
20	0x00000000	0.0
21	0x00000000	0.0
22	0x00000000	0.0
23	0x00000000	0.0
24	0x00000000	0.0
25	0x00000000	0.0
26	0x00000000	0.0
27	0x00000000	0.0
28	0x00000000	0.0
29	0x00000000	0.0
30	0x00000000	0.0
31	0x00000000	0.0
32	0x00000000	0.0
33	0x00000000	0.0
34	0x00000000	0.0
35	0x00000000	0.0
36	0x00000000	0.0
37	0x00000000	0.0
38	0x00000000	0.0
39	0x00000000	0.0
40	0x00000000	0.0
41	0x00000000	0.0
42	0x00000000	0.0
43	0x00000000	0.0
44	0x00000000	0.0
45	0x00000000	0.0
46	0x00000000	0.0
47	0x00000000	0.0
48	0x00000000	0.0
49	0x00000000	0.0
50	0x00000000	0.0
51	0x00000000	0.0
52	0x00000000	0.0
53	0x00000000	0.0
54	0x00000000	0.0
55	0x00000000	0.0
56	0x00000000	0.0
57	0x00000000	0.0
58	0x00000000	0.0
59	0x00000000	0.0
60	0x00000000	0.0
61	0x00000000	0.0
62	0x00000000	0.0
63	0x00000000	0.0
