ckpt/final_model_eps_50_seed_1_wd_0e+00.ckpt (torch_old, 726117 bytes, 12 tensors)

conv1.weight f4 [32, 1, 8, 8]
0	0x3e59d6ad	0.21273299
1	0xbda850db	-0.08218547
2	0xbdaf33e5	-0.0855482
3	0xbe165a46	-0.14682874
4	0x3e309a6a	0.17246404
5	0x3df1edec	0.11812958
6	0xbeedfdba	-0.4648264
7	0xbd9c6a9f	-0.07637524
8	0xbdc81784	-0.0977011
9	0x3e5eb5a5	0.2174898
10	0xbd7ec03a	-0.06219504
11	0xbbd37b7b	-0.006453929
12	0x3eadcd5b	0.33945736
13	0xbe4d8021	-0.20068409
14	0xbebaf4a3	-0.36514768
15	0xbea98602	-0.33110052
16	0xbd23c137	-0.039979186
17	0x3d96aec1	0.073575504
18	0xbe552043	-0.20813088
19	0x3e7d5a4b	0.24741475
20	0x3ee09e9d	0.43871012
21	0x3e7a5d23	0.24449591
22	0xbdb0a3f1	-0.08625019
23	0xbea4bdd0	-0.32176065
24	0xbd901e3e	-0.07037018
25	0xbe4361b5	-0.19080241
26	0xbe0e927c	-0.13923067
27	0x3e0385fb	0.12844078
28	0x3e8c6d15	0.27426973
29	0x3e878e98	0.26475978
30	0xbe4aa8f4	-0.19791013
31	0xbeb9414d	-0.36182633
32	0xbdc308a6	-0.09523134
33	0xbcc834c9	-0.024439232
34	0xbeacb6c4	-0.3373319
35	0xbc0b7d31	-0.008513735
36	0x3f19d047	0.6008343
37	0x3f09764a	0.5369612
38	0x3d13dd73	0.036099862
39	0xbe9cd982	-0.30634695
40	0xbdce008f	-0.100587
41	0x3e7c1e5f	0.2462096
42	0xbe7741a2	-0.2414613
43	0xbeb3e0b0	-0.3513236
44	0x3e2a620f	0.16638969
45	0x3eb5f891	0.35541204
46	0x3e4fa5ae	0.20278046
47	0xbde50655	-0.11182848
48	0x3b692d7f	0.0035580096
49	0xbdd79264	-0.10525969
50	0xbe8574e1	-0.26065734
51	0xbeba3c76	-0.36374253
52	0x3d967de2	0.07348229
53	0x3ec28603	0.37992868
54	0x3e8e46cd	0.27788392
55	0xbd810d3f	-0.063013546
56	0x3e5ac151	0.21362807
57	0x3a1fa005	0.00060892134
58	0x3caf8fc2	0.021430854
59	0xbea0f1e7	-0.31434557
60	0xbe5b2fb9	-0.21404923
61	0x3e436848	0.19082749
62	0x3deaedb7	0.11471122
63	0x3ddf98f0	0.109178424
64	0x3e35ec90	0.17766023
65	0xbe9dd31b	-0.30825123
66	0xbec1bc1c	-0.3783883
67	0xbe58898a	-0.21146217
68	0x3c39cebf	0.011340796
69	0x3e76dcca	0.24107662
70	0x3e0d7c10	0.13816857
71	0xbd860e24	-0.06545666
72	0x3d8c9cd7	0.06865852
73	0xbde4e5e5	-0.111766614
74	0xbda1d2a8	-0.079015076
75	0xbde226e3	-0.11042573
76	0x3d88826b	0.066655
77	0x3e5dd0fd	0.21661754
78	0x3e2cdea4	0.16881806
79	0xbc8bbaf9	-0.017056929
80	0xbd2afe66	-0.04174652
81	0xbe80d033	-0.25158843
82	0xbda4684a	-0.08027704
83	0x3d9c9f48	0.07647568
84	0x3ece29ad	0.4026617
85	0x3ed405f0	0.4141078
86	0x3df34f8b	0.11880406
87	0xbdfe2886	-0.12410073
88	0xbe4454cb	-0.19172971
89	0xbdaf8609	-0.08570487
90	0xbcebfb0a	-0.028806228
91	0x3e21ffe1	0.15820266
92	0x3eada9e2	0.33918673
93	0x3e01e6fd	0.12685771
94	0x3e065522	0.13118413
95	0xbe2bd657	-0.16780983
96	0x3d8536c4	0.06504586
97	0xbd4f7761	-0.050650958
98	0x3e12813d	0.14307113
99	0x3dffccec	0.124902576
100	0x3eb1112b	0.3458341
101	0x3e6e12f7	0.23249422
102	0xbe4b9d5c	-0.19884247
103	0xbe29e314	-0.1659053
104	0xbdb70f05	-0.089384116
105	0xbe8dca4e	-0.2769341
106	0x3df6b6cf	0.12046587
107	0x3eb53dfc	0.35398853
108	0x3d86e42f	0.06586491
109	0x3cc88e1e	0.02448183
110	0xbeae6356	-0.34060162
111	0xbe1137e8	-0.14181483
112	0xbeab2b36	-0.33431405
113	0x3dcad65c	0.09904167
114	0x3df35e14	0.11883178
115	0x3e17e57d	0.14833637
116	0xbd2f5d26	-0.042813443
117	0x3d714f17	0.058913317
118	0x3dc147d2	0.09437527
119	0xbec7d2ab	-0.39027914
120	0x3d8aaf9a	0.067717746
121	0x3e07801a	0.1323246
122	0x3c198fde	0.0093726795
123	0xbe34b002	-0.17645267
124	0x3d267c76	0.04064604
125	0xbe769143	-0.2407885
126	0xbe9758b9	-0.29559878
127	0xbe87fd44	-0.26560414
128	0x3dc70720	0.09718156
129	0x3e2647e6	0.16238365
130	0xbd8e21d9	-0.0694005
131	0x3d8a6513	0.067575596
132	0xbe82325f	-0.25429055
133	0x3d793d6e	0.0608496
134	0xbd46276e	-0.048377447
135	0xbdcb40a0	-0.099244356
136	0xbc9ea7cb	-0.01936712
137	0x3e322c7e	0.17399785
138	0x3e316826	0.17324886
139	0x3dc01839	0.0937962
140	0xbc184cf7	-0.009295694
141	0xbcdb338d	-0.02675798
142	0x3dd2246a	0.10260852
143	0x3ccd34a0	0.025049508
144	0x3dbd2cea	0.09237082
145	0xbd726140	-0.059174776
146	0x3e447085	0.19183548
147	0x3d8ccea4	0.06875351
148	0xbd3434ef	-0.043995794
149	0xbd07afed	-0.03312676
150	0x3d066ea4	0.03282036
151	0x3d582a6b	0.052774828
152	0xbe8a3b24	-0.26998246
153	0xbe1ccb79	-0.15311994
154	0xbe515270	-0.20441604
155	0x3bf6dc04	0.007533552
156	0xbd9b4bbe	-0.07582806
157	0x3dd91e0f	0.10601436
158	0x3dae321c	0.08505651
159	0x3e888ab3	0.2666832
160	0xbd58b905	-0.052910823
161	0xbed174ad	-0.4090933
162	0xbe3e5483	-0.18586926
163	0x3dba9c5a	0.09111853
164	0xbd9302e1	-0.071782835
165	0x3d514e28	0.051099926
166	0x3dd3a264	0.10333708
167	0x3ea9e2ab	0.33180746
168	0xbdd0e60a	-0.102001265
169	0x3d603159	0.05473456
170	0xbe0b59f9	-0.1360854
171	0xbe9a2967	-0.30109712
172	0xbb8f66f8	-0.0043762885
173	0x3de6b834	0.11265603
174	0x3ea70bfd	0.32626334
175	0x3d38009b	0.044922452
176	0xbe2c64f4	-0.16835386
177	0x3cf338fc	0.029690258
178	0xbd83b66f	-0.06431281
179	0xbda366e4	-0.07978609
180	0xbd90803f	-0.07055711
181	0x3e83252c	0.25614297
182	0x3e3f4bdc	0.18681282
183	0x3ec36180	0.38160324
184	0x3e1638b5	0.1467007
185	0x3d59d2ee	0.053179674
186	0xbec2cd65	-0.3804733
187	0xbd0ce13f	-0.0343945
188	0x3c116dfb	0.008876319
189	0x3e2e1203	0.16999058
190	0x3e79af71	0.24383332
191	0xbd9b24f4	-0.075754076
192	0x3e17f26f	0.14838575
193	0x3e16e3d3	0.14735346
194	0x3eeb31bb	0.4593638
195	0xbdfce74e	-0.12348805
196	0xbe8ee020	-0.2790537
197	0xbe94776a	-0.28997356
198	0xbe02f42f	-0.12788461
199	0xbd9d166e	-0.07670294
200	0x3eb9bc13	0.36276302
201	0x3e055ed5	0.13024457
202	0xbdfc964f	-0.123333566
203	0xbccf064c	-0.025271557
204	0xbe7e2f17	-0.24822651
205	0xbe5ca67e	-0.21547887
206	0x3e303ac3	0.17209916
207	0x3e49aaf5	0.19694121
208	0x3dc592d4	0.09647146
209	0x3e812bea	0.25228816
210	0xbde78e72	-0.11306466
211	0xbdb665f4	-0.08906165
212	0xbe01679a	-0.12637177
213	0x3e59a3df	0.21253918
214	0x3e21549f	0.15754937
215	0xbca64941	-0.020298602
216	0x3d029ba0	0.031886697
217	0xbda662f6	-0.08124344
218	0xbeb27806	-0.34857196
219	0xbea36543	-0.31913194
220	0xbd502317	-0.050814714
221	0x3e19f97a	0.15036574
222	0x3e6f3537	0.23360144
223	0x3e8e161f	0.27751252
224	0x3ccf2b2c	0.02528914
225	0xbe914240	-0.28370857
226	0xbed08fcb	-0.40734705
227	0xbe772979	-0.24136914
228	0xbdc96eca	-0.098355845
229	0x3ea8869c	0.329152
230	0x3d71fd5d	0.059079517
231	0xbda9258d	-0.08259115
232	0x3cfedff4	0.031112649
233	0xbe8be42f	-0.27322528
234	0xbe78958b	-0.24275796
235	0x3e080c5a	0.13285962
236	0x3eac7752	0.33684784
237	0x3e3d2fef	0.18475316
238	0x3e88b77c	0.26702487
239	0xbe8f63d1	-0.2800584
240	0xbcaa6c6d	-0.020803655
241	0xbd9c5979	-0.07634253
242	0x3e6c069c	0.23049396
243	0x3e575db8	0.21031845
244	0x3e0fdcae	0.14049026
245	0x3e5124a2	0.2042413
246	0xbd15cfa7	-0.036574986
247	0xbe79ef11	-0.24407603
248	0x3cd09280	0.025460482
249	0xbe52dd1c	-0.20592159
250	0x3e0e1368	0.1387459
251	0x3dd81b91	0.10552133
252	0x3e34fdf0	0.17674994
253	0x3dc151a2	0.09439398
254	0xbe5fab76	-0.21842751
255	0xbe38ab7f	-0.1803417

conv1.bias f4 [32]
0	0xbbb96cb2	-0.0056587094
1	0xbdd7e8a3	-0.10542419
2	0x3e6fecea	0.2343022
3	0xbd4d0b49	-0.05005959
4	0xbcb47de2	-0.022032682
5	0x3c3b3d8f	0.011428251
6	0x3e0fa3cc	0.14027327
7	0xbe0c86c6	-0.13723287
8	0xbe1d4cd7	-0.15361343
9	0x3d75f4ac	0.06004779
10	0x3d915748	0.07096726
11	0x3e6fd560	0.2342124
12	0x3db3447d	0.087532975
13	0xbc8d08ed	-0.01721617
14	0xbc8915a1	-0.016733946
15	0x3c4b99c7	0.0124268
16	0xbe8bd023	-0.27307233
17	0xbe664ddb	-0.22490637
18	0x3e604c73	0.21904163
19	0x3ca3eea6	0.020011257
20	0x3d6e5311	0.058184687
21	0xbe65dbd0	-0.22447133
22	0x3ccaf9fc	0.024777405
23	0xbeaade33	-0.3337265
24	0x3f07635b	0.5288598
25	0xbde26530	-0.11054456
26	0xbde7695d	-0.11299393
27	0x3f367ea4	0.7128699
28	0x3d0361f8	0.032075852
29	0x3e9d7465	0.30752864
30	0x3caf044a	0.02136435
31	0x3b469b0a	0.0030304813

conv2.weight f4 [64, 32, 6, 6]
0	0x3c38c5a8	0.011277594
1	0x3db20f08	0.08694273
2	0x3c978760	0.018497169
3	0x3d108e30	0.03529185
4	0xbc8a987d	-0.016918415
5	0xbbfd22dc	-0.007725103
6	0x3d5f887d	0.054573525
7	0x3d0b1cb2	0.033962913
8	0x3ce606e4	0.028079458
9	0x3c4b1cdd	0.012397018
10	0x3d304be1	0.043041114
11	0x3b8166cd	0.0039490224
12	0x3b433fbb	0.0029792625
13	0x3d99e099	0.07513542
14	0xbcc34c31	-0.023840042
15	0xbbaaab5a	-0.005208415
16	0xbd065bf5	-0.03280254
17	0xbc5946ad	-0.013261479
18	0x3d3220b9	0.043488238
19	0x3c5f5816	0.013631841
20	0x3d11755a	0.035512306
21	0x3d00765e	0.031362884
22	0x3cde7938	0.027157411
23	0x3a6a59ee	0.0008939792
24	0x3c8c94b6	0.017160755
25	0xbd6cfa4b	-0.057855885
26	0x3c36a0a2	0.011146696
27	0x3d204038	0.039123744
28	0xbca158dc	-0.019695692
29	0x3ad03a3d	0.0015886497
30	0x3d02f023	0.031967293
31	0xbd168dfd	-0.036756504
32	0xbd93adba	-0.0721087
33	0x3b70b6f6	0.0036730147
34	0x3d0caf19	0.034346674
35	0xbcb5494f	-0.022129683
36	0x3bfff258	0.007810872
37	0xbd6a2829	-0.057167206
38	0xbaa691ab	-0.0012708207
39	0xba28f42d	-0.00064450764
40	0x3c16fd18	0.009215616
41	0xbd0cee1e	-0.034406774
42	0xbd783628	-0.060598522
43	0xbd9158c1	-0.070970066
44	0xbce2f380	-0.027704
45	0xbdb9f93d	-0.090807416
46	0xbd5501ba	-0.0520036
47	0xbc29ddcb	-0.010367821
48	0xbd345fe9	-0.04403678
49	0x3b03caf4	0.0020109983
50	0xbd730fb9	-0.059341166
51	0xbd49c28b	-0.049257796
52	0xbc8dfe67	-0.017333223
53	0x3c0eb6a2	0.008710535
54	0xbc1ffc7f	-0.00976479
55	0xbca7e6f2	-0.020495865
56	0xbd45ec83	-0.04832126
57	0x3d2d82bf	0.042361017
58	0x3d07eec3	0.033186685
59	0xbb0b6b7e	-0.0021273787
60	0xbcc75fb6	-0.02433763
61	0xbc85891f	-0.016300736
62	0xbc78848c	-0.01516832
63	0x3dd0f9bf	0.10203885
64	0xbc840aba	-0.016118396
65	0x3d2e4efb	0.04255579
66	0xbdb07b71	-0.086172946
67	0xbd7c10f2	-0.061539598
68	0x3ca07dd5	0.019591251
69	0x3c42e68f	0.01189579
70	0xbd31e3ac	-0.043430015
71	0x3c5bf152	0.013424234
72	0xbba36b4f	-0.0049871574
73	0xbcfb7225	-0.030694077
74	0xba67631b	-0.00088267185
75	0xbd92eb3a	-0.07173772
76	0xbcad36fb	-0.02114438
77	0xbd98e926	-0.074663445
78	0x3b303192	0.0026885015
79	0xbd53bf31	-0.051696006
80	0xbdbabcbe	-0.09118031
81	0xbc0d94e6	-0.008641457
82	0xbb306707	-0.0026916878
83	0xbd4c49e6	-0.049875163
84	0x3ca6888b	0.02032878
85	0xbcdf17c6	-0.027233016
86	0x3d202801	0.03910065
87	0xbb345bdc	-0.0027520573
88	0xbcd3d86b	-0.025860032
89	0x3c707e92	0.014678614
90	0xb99d50dd	-0.0003000562
91	0x3c5d5644	0.013509337
92	0x3d80f900	0.06297493
93	0x3c7b383c	0.015333232
94	0x3d5a9264	0.053362265
95	0x3cfc39ba	0.030789245
96	0x3d62f272	0.055406995
97	0x3d8f898e	0.07008658
98	0xbc6650e2	-0.01405737
99	0x3d0b7f77	0.034057107
100	0xbce1aac5	-0.02754725
101	0xbd5a4fe1	-0.053298835
102	0x3dfb91d0	0.12283671
103	0x3d57aa15	0.052652437
104	0x3d52d84c	0.051475808
105	0xb70dda9b	-8.455153e-06
106	0x3d6e32d2	0.058153935
107	0xbcd70c5d	-0.026251012
108	0xbb0e746b	-0.002173687
109	0x3d3a04f5	0.045414884
110	0x3d3e20f9	0.046418164
111	0xbd802cb1	-0.06258524
112	0xbc75995a	-0.014990175
113	0x3c7fbcc9	0.015608975
114	0x3cf5ae71	0.029990407
115	0xbd056602	-0.032567985
116	0xbcc6c5c8	-0.024264231
117	0xbd9f8276	-0.07788555
118	0xbc1e06f2	-0.009645211
119	0x3d4242e8	0.047427088
120	0xbc3aab33	-0.011393356
121	0xbd2ca987	-0.04215386
122	0xbd4e8019	-0.050415132
123	0xbc86e84b	-0.016468188
124	0x3d210c7f	0.039318558
125	0x3c882060	0.016617
126	0x3c4fef4c	0.01269133
127	0xbd5e4083	-0.054260742
128	0x3ce763ea	0.028245885
129	0xbce4153a	-0.027842153
130	0xbce53de7	-0.027983619
131	0x3cd9f73e	0.026607152
132	0xbb3d3291	-0.0028869251
133	0xbd68c674	-0.056829885
134	0xbcb72e81	-0.022361042
135	0x3cd6895f	0.02618855
136	0x3c893864	0.016750522
137	0x3cc95989	0.024578827
138	0x3d877fa8	0.06616145
139	0x3d9fb551	0.07798255
140	0xbc697620	-0.014249355
141	0xbcf6c3d5	-0.030122677
142	0xbcfaf9d9	-0.030636715
143	0xbc8834cc	-0.016626738
144	0xba97d4a0	-0.0011583753
145	0x3d2d526a	0.042314924
146	0x3cad7923	0.021175927
147	0x3d4bcc63	0.049755465
148	0xbaf26fbf	-0.0018496438
149	0xbc915aa3	-0.017743414
150	0x3d13b2b9	0.036059115
151	0x3db53fda	0.08850069
152	0xbc51e417	-0.0128107285
153	0x3c242841	0.010019363
154	0x3d85909f	0.06521725
155	0x3d0e307b	0.034714203
156	0xbd5b4492	-0.05353219
157	0xbbc6bf3b	-0.006065277
158	0x3d39688d	0.045265723
159	0x3d3dae2d	0.046308685
160	0xbd067c1c	-0.032833204
161	0xbd1bba39	-0.038019393
162	0x3d2fefa4	0.04295315
163	0x3d00b5cd	0.03142338
164	0xbbbdd1ed	-0.0057928474
165	0x3d52abfd	0.051433552
166	0x390a34b8	0.00013180345
167	0xbd8c187b	-0.06840607
168	0x3d77eec0	0.060530424
169	0xbb93efa4	-0.0045146514
170	0x3ce68eb3	0.028144216
171	0x3cc5dd16	0.024153274
172	0xbb005278	-0.0019580405
173	0x3d003859	0.031303737
174	0x3dfcf087	0.123505645
175	0x3d633791	0.055472914
176	0xbd00076b	-0.031257074
177	0xbd75182b	-0.0598375
178	0xbcb73166	-0.022362422
179	0xbc9d4bc9	-0.019201176
180	0xbd23262c	-0.039831325
181	0x3cf500bc	0.029907577
182	0x3adc00f0	0.0016784947
183	0xbb1ecb1e	-0.0024229954
184	0x3d42f094	0.047592714
185	0x3cb981d5	0.022644917
186	0x3c84ab78	0.016195044
187	0x3d8de571	0.06928528
188	0x3cb31dbf	0.02186477
189	0x3d42e4a7	0.04758134
190	0x3d2f673a	0.042823054
191	0x3d1b1376	0.037860356
192	0x3d4ca1be	0.049958937
193	0x3e0a4b51	0.13505293
194	0x3d623bbf	0.05523276
195	0xbd391099	-0.045181844
196	0x3d793141	0.060837988
197	0xbca86514	-0.02055601
198	0x3d5342f2	0.051577516
199	0x3d82a374	0.063788325
200	0xbc7dd19b	-0.015491868
201	0x3c5471f0	0.012966618
202	0x3d3c6699	0.045996282
203	0x3cd1a4ea	0.025591332
204	0x3d0ae080	0.033905506
205	0x3d259749	0.04042748
206	0x3d5e6d92	0.054303713
207	0xb9ed8f02	-0.00045310712
208	0x3cfd5894	0.030926026
209	0xbc819982	-0.015820269
210	0xbaa68cc1	-0.0012706743
211	0xbcc07c46	-0.023496758
212	0xbd65f325	-0.056140084
213	0xbd05e03c	-0.03268455
214	0xbd5423ba	-0.051791884
215	0x3d5bd260	0.053667426
216	0x3a7c449c	0.00096232607
217	0x3c9d0b37	0.019170387
218	0x3d24669f	0.04013693
219	0xbb872711	-0.00412453
220	0xbd25e5ab	-0.04050223
221	0x3c377091	0.0111962715
222	0xbd327cd7	-0.043576088
223	0xbcac590a	-0.02103855
224	0xbd0fe505	-0.03513052
225	0xbbb927d4	-0.0056505
226	0xbbb356c2	-0.005472989
227	0xbd81ca54	-0.06337419
228	0xbc304814	-0.010759372
229	0x3d4e5546	0.05037429
230	0xbd00d912	-0.031457014
231	0xbd55d59e	-0.052205674
232	0xbc2b110d	-0.010441077
233	0x3d49d93c	0.049279436
234	0xbd23c5cc	-0.039983556
235	0xbcd91757	-0.026500387
236	0x3c3b03fc	0.011414524
237	0xbca7e11a	-0.020493079
238	0x3d09410f	0.03350931
239	0x3da75da8	0.081721604
240	0x3c989cd2	0.018629465
241	0x3ba33c55	0.0049815574
242	0x3d303f37	0.043029036
243	0x3d13ca8d	0.03608184
244	0x3d111c3f	0.03542733
245	0x3d6e2473	0.05814023
246	0xbd01731c	-0.031603917
247	0x3d2c4d7e	0.04206609
248	0x3ce1c510	0.027559787
249	0x3da5ab4e	0.080893144
250	0x3cce9ceb	0.025221309
251	0x3d6876a0	0.056753755
252	0x3cec358f	0.028834132
253	0x3bfa0331	0.007629775
254	0x3d36a9c9	0.044595513
255	0xbcf26c7d	-0.029592747

conv2.bias f4 [64]
0	0x3ccf0153	0.025269186
1	0x3d93b469	0.07212145
2	0xbd000987	-0.031259086
3	0x3bd81a83	0.0065949573
4	0x3e1bc9c4	0.15213686
5	0x3cff9349	0.03119816
6	0x3da8bd4d	0.08239231
7	0x3e2d2037	0.1690682
8	0x3e1a22ec	0.15052384
9	0x3e6cf44d	0.23140068
10	0x3e76f162	0.24115518
11	0x3d1082a6	0.035280846
12	0x3d8effde	0.069823965
13	0x3dba8b8b	0.09108647
14	0x3d85e111	0.06537069
15	0x3d94897c	0.072527856
16	0x3d70ab06	0.05875685
17	0x3e417875	0.18893607
18	0x3e918c15	0.28427187
19	0xbcee2e9c	-0.02907496
20	0x3d974705	0.07386593
21	0xbd2791fe	-0.040910713
22	0x3cd0cec4	0.025489219
23	0x3e67887d	0.2261066
24	0x3e0c651c	0.13710445
25	0xbd7c2302	-0.061556824
26	0x3e87c7fc	0.26519763
27	0x3d7a1a64	0.061060324
28	0x3dab7def	0.08373629
29	0xbc33eba9	-0.010981479
30	0x3d9e94f3	0.077432536
31	0x3dd427c1	0.10359145
32	0x3d8fcb0e	0.070211515
33	0x3d3668d7	0.044533577
34	0xbdbf6144	-0.09344724
35	0xbd97df08	-0.07415587
36	0x3bb6acfb	0.00557482
37	0x3de3caba	0.111226514
38	0xbc7cb900	-0.015424967
39	0x3d866034	0.06561318
40	0x3d92ad30	0.07161939
41	0x3c15b56a	0.009137491
42	0x3c06e884	0.008234147
43	0x3e1ddbca	0.15415874
44	0x3e6e2e0f	0.23259757
45	0x3d233294	0.039843157
46	0x3e79d1e6	0.24396476
47	0x3e2540c9	0.16137995
48	0xbd08f579	-0.033437226
49	0xbc077c42	-0.008269371
50	0x3e3d7ef6	0.18505463
51	0xbd1a5620	-0.03767979
52	0x3d2a33cd	0.041553307
53	0x3d8c268e	0.06843291
54	0x3d898f6a	0.06716807
55	0xbcb26d43	-0.021780616
56	0x3d3e70d4	0.04649432
57	0x3e04516f	0.1292169
58	0x3e55da8a	0.20884147
59	0xbc82a9b4	-0.015950061
60	0x3d767503	0.060170185
61	0x3d616de8	0.055036455
62	0xbd67e258	-0.056612343
63	0x3e04acad	0.12956496

conv3.weight f4 [64, 64, 5, 5]
0	0x3d1cf42e	0.038318805
1	0xbcf41656	-0.029795807
2	0xbd06e783	-0.03293563
3	0xbc658822	-0.014009507
4	0xbce38c2e	-0.027776804
5	0x3d8da305	0.06915859
6	0x3d13278d	0.03592639
7	0xbcea0859	-0.028568434
8	0x3ccb1e44	0.024794705
9	0xbccf6851	-0.025318297
10	0x3c265d85	0.010154133
11	0x3cbc4c0b	0.022985479
12	0xbd460414	-0.048343733
13	0xbc8f212f	-0.017471878
14	0x3c925114	0.017860927
15	0xbcf8c695	-0.030368129
16	0xbce02cba	-0.027365077
17	0xbd488c83	-0.048962127
18	0xbc3c26d2	-0.011483865
19	0xbca33c43	-0.019926196
20	0xbcd61889	-0.026134746
21	0xbcdef000	-0.02721405
22	0xbb1b9238	-0.0023738276
23	0x3ca717e9	0.020397143
24	0xbc9c1b02	-0.019055847
25	0x3da2d020	0.07949853
26	0x3c70f072	0.014705764
27	0x3d87d5c4	0.066325694
28	0xbc32a895	-0.010904451
29	0xbcfe111c	-0.031014018
30	0x3a8cab1b	0.0010732146
31	0xbc07a4f8	-0.008279078
32	0x3c54613d	0.012962637
33	0x3cdaa329	0.026689129
34	0x3c2aa1a9	0.010414519
35	0x3cce8593	0.025210178
36	0xbba7d8c8	-0.005122278
37	0x3d36d095	0.044632513
38	0xbc080ce4	-0.008303855
39	0x3d72fee4	0.059325114
40	0xbcd3666b	-0.025805673
41	0x3d6f2ef3	0.058394384
42	0xbab7f428	-0.0014034556
43	0xbc6fdc57	-0.014639935
44	0x3d0663fb	0.032810193
45	0xbd6d3410	-0.05791098
46	0xbd5cc0a0	-0.05389464
47	0x3cc56df1	0.024100276
48	0x3c9ecad8	0.019383833
49	0xbc9b2e97	-0.018943114
50	0xbc91f3bc	-0.017816417
51	0x3c98c0f8	0.018646702
52	0x3b95cd2a	0.0045715766
53	0xbc7a50a9	-0.01527802
54	0xbd650b19	-0.055918787
55	0x3cf35ab7	0.029706342
56	0x3d2ca425	0.042148728
57	0x3cd3e976	0.025868159
58	0x3c1bfaef	0.009520276
59	0x3cf2bb8a	0.029630441
60	0xbc9af395	-0.018914977
61	0xbbcd3f95	-0.006263683
62	0x3b9c55d4	0.0047709737
63	0x3c084075	0.008316149
64	0x3c9504c7	0.018190755
65	0xbbdfc2e3	-0.006828652
66	0xbca90802	-0.020633701
67	0x3cefd24f	0.029275088
68	0x3cf3ebcd	0.029775525
69	0xbc0c9f0d	-0.008582843
70	0xbcb3c761	-0.021945657
71	0xbb95d363	-0.0045723184
72	0x3cdfaedf	0.027305065
73	0x3c81d22d	0.01584729
74	0xbc72f586	-0.014829045
75	0xbd0846f5	-0.033270795
76	0xbcecaafc	-0.028890125
77	0xbc36d603	-0.011159423
78	0xbbad9105	-0.0052968287
79	0x3cd60629	0.026125984
80	0x3c8b1085	0.01697565
81	0xbcf002c9	-0.029298203
82	0xbc8d3be8	-0.01724048
83	0xbc61c27e	-0.013779281
84	0x3bd9d807	0.006648067
85	0xbc9e294b	-0.0193068
86	0xbcc4ac8b	-0.024008056
87	0x38b8520b	8.7890854e-05
88	0x3a3af167	0.00071313087
89	0x3c009133	0.007847118
90	0x3cb0113a	0.02149259
91	0xbd187ca3	-0.037228238
92	0xbcb44144	-0.022003777
93	0x3c82a93e	0.015949842
94	0x3be07694	0.006850073
95	0x38093d9e	3.272073e-05
96	0xbc9c7438	-0.019098386
97	0x3ce36dc8	0.027762309
98	0xbcd61539	-0.026133167
99	0xbc3f780a	-0.011686334
100	0x3ac79ebd	0.0015229803
101	0xbc1dd0fe	-0.009632347
102	0xbd303f9f	-0.043029424
103	0xbc78dbac	-0.015189093
104	0x3c21b27b	0.009869213
105	0x3c035a23	0.008017096
106	0x3c0aaf79	0.0084646875
107	0x3d365643	0.04451586
108	0x3c5d8562	0.0135205705
109	0x3ced44e3	0.028963512
110	0x3d033077	0.03202864
111	0xbd7c9b8c	-0.06167178
112	0x3a44bdbb	0.00075050787
113	0x3cd22d66	0.025656413
114	0xbcdf38f6	-0.02724884
115	0xbd953876	-0.0728616
116	0x3bc354b3	0.0059610247
117	0x3d2650a4	0.04060425
118	0x3cb09acd	0.02155819
119	0xbc1a9b99	-0.009436511
120	0x3c292e0c	0.01032592
121	0xbd84b736	-0.06480257
122	0xbd07a806	-0.033119224
123	0x3d3aa495	0.045567114
124	0xbc328081	-0.0108948955
125	0x3cf128a5	0.029438326
126	0x3c83bc13	0.016080892
127	0x3c6b9325	0.014378344
128	0xbc761231	-0.015018986
129	0xbc2e764f	-0.010648324
130	0x3d8f1f0b	0.06988343
131	0x3c59ff4a	0.013305495
132	0xbcb49efa	-0.022048462
133	0x3c8744db	0.016512325
134	0x3cf4fa36	0.029904466
135	0x3c34564d	0.011006904
136	0x3ca0afc3	0.01961506
137	0x3d72e9f6	0.059305154
138	0xbc7f3ebd	-0.015578923
139	0xbcdbc326	-0.026826452
140	0xbbe9c1dc	-0.0071337055
141	0xba596ee6	-0.0008294418
142	0xbd767276	-0.060167752
143	0x3a0be2e8	0.0005336241
144	0x3d3c8d02	0.046032913
145	0xbce3d5f2	-0.027811978
146	0xbc976c04	-0.018484123
147	0xbbe414ce	-0.006960488
148	0xbd2bf866	-0.041984938
149	0x3d699b5c	0.057032928
150	0xbb9ebefb	-0.004844544
151	0x3d0f1b1c	0.034937963
152	0x3c9d32cb	0.019189259
153	0x3d260fb4	0.04054232
154	0xbbf76768	-0.007550169
155	0x3d278459	0.0408977
156	0x3ca182e7	0.01971574
157	0x3d5d24e2	0.053990252
158	0xbca29f8a	-0.019851465
159	0x3b33d4d5	0.002744009
160	0x39b2db81	0.0003411435
161	0x3d220d90	0.039563715
162	0x3d10c4a5	0.035343785
163	0xbbe54d91	-0.006997772
164	0xbc74b5dd	-0.014935938
165	0x3d6095c8	0.054830343
166	0x3bcf6765	0.0063294643
167	0x3cc92242	0.024552468
168	0x3d6aed5d	0.057355274
169	0x3cc89df1	0.024489375
170	0xbbde039b	-0.006775332
171	0x3d383762	0.044974692
172	0xba6e4d41	-0.0009090491
173	0x3bfb3fed	0.0076675327
174	0xbc6061fc	-0.013695236
175	0xbd181369	-0.037127886
176	0xbd1fdc46	-0.03902843
177	0x3d2082d3	0.039187264
178	0x3cd10d8b	0.025519153
179	0xbc0188a3	-0.007906112
180	0x3ca5e4e9	0.020250754
181	0xbc7fbb9e	-0.015608696
182	0x3d43ae27	0.047773506
183	0xbc6be49f	-0.014397769
184	0xbce2fde3	-0.027708953
185	0xbbcc5ed2	-0.0062368894
186	0x3c10c40f	0.0088358065
187	0xbd263d69	-0.04058591
188	0xbcaaae2d	-0.020835007
189	0xbc86d035	-0.016456703
190	0xbade25a4	-0.0016948474
191	0x3cb46008	0.022018448
192	0x3d37504a	0.044754304
193	0x3d050b3d	0.03248142
194	0xbd247e61	-0.040159587
195	0x3d3f2809	0.04666904
196	0xbb52ba93	-0.0032154664
197	0x3cd70acf	0.026250271
198	0x3c33ba94	0.010969777
199	0x3d43b267	0.04777756
200	0x3d0ab8df	0.033867713
201	0xbb17ae74	-0.0023144754
202	0xbcf97a24	-0.030453749
203	0x3cb368e9	0.021900611
204	0xbd22a819	-0.03971109
205	0xbd05dd34	-0.03268166
206	0xbd5f3932	-0.054497905
207	0x3cd6c5b0	0.026217312
208	0xba7faa99	-0.0009752899
209	0x3d106ae3	0.035258185
210	0x3cc5fded	0.024168933
211	0x3bb9706b	0.005659153
212	0x3d1063d7	0.035251465
213	0x3d1fc707	0.039008167
214	0x3b59098f	0.003311727
215	0xbd1b0c6e	-0.03785365
216	0x3d0af464	0.033924475
217	0xbd38a46e	-0.045078687
218	0x3c4a7f62	0.012359472
219	0x3cef1735	0.02918587
220	0xbd45f2a4	-0.048327103
221	0xba98e431	-0.0011664686
222	0x3d81656b	0.06318172
223	0x3d713cfa	0.058896042
224	0x3d76b273	0.060228776
225	0x3c92b1a1	0.017906966
226	0x3bc7bcca	0.0060955035
227	0x3d110fbc	0.035415396
228	0x3d3d19ea	0.04616729
229	0x3cad8c07	0.021184934
230	0xb9df3657	-0.0004257436
231	0xbd7fd74a	-0.062461175
232	0x3d1f5d07	0.038907077
233	0xbd1adbfe	-0.037807457
234	0xbb21b72c	-0.002467583
235	0xbc80cd1d	-0.015722806
236	0xbd05d27d	-0.03267144
237	0xbcea8971	-0.02862999
238	0x39c67bab	0.00037857643
239	0xbd50b1bb	-0.050950747
240	0xbc720efa	-0.0147740785
241	0xbc991359	-0.018685983
242	0xbcccd3f4	-0.02500341
243	0xbc2546a4	-0.010087643
244	0x3c44c44c	0.012009691
245	0x3b8de99e	0.004330828
246	0xbda23982	-0.07921125
247	0xbd3800c5	-0.04492261
248	0xbb44f996	-0.0030055991
249	0xbbb4d0b6	-0.0055180443
250	0x3c745e35	0.014915039
251	0x3d243290	0.040087283
252	0xbcc69ecc	-0.024245642
253	0xbd40f024	-0.047104016
254	0x3d1333e0	0.035938144
255	0x3cc15bb7	0.023603303

conv3.bias f4 [64]
0	0xbba99b05	-0.0051759505
1	0x3d86ae88	0.06576258
2	0x3e1558a3	0.14584593
3	0x3d84e9e3	0.06489923
4	0x3bb677f6	0.0055684997
5	0x3d32de2a	0.043668903
6	0x3d79b212	0.060960837
7	0x3d55b745	0.052176733
8	0x3d569f4b	0.052398007
9	0x3c4a9bbf	0.012366234
10	0x3d90ba17	0.07066744
11	0x3e0c3088	0.13690388
12	0x3d00c309	0.031436
13	0x3d38d29a	0.04512272
14	0x3cc7ac83	0.024374252
15	0x3d71ea89	0.05906156
16	0xbc2afbee	-0.010436041
17	0x3d2d6513	0.04233272
18	0x3d13b119	0.036057565
19	0x3b118cc3	0.0022209145
20	0x3d815231	0.06314505
21	0x3d8a0b78	0.06740469
22	0x3d28a664	0.041174307
23	0x3ce4e27e	0.027940031
24	0x3dbd4bba	0.09242959
25	0x3d238602	0.03992272
26	0x3dd21d2e	0.10259472
27	0x3d4250cd	0.04744034
28	0x3c3a2b53	0.011362868
29	0xbb1c6c34	-0.0023868205
30	0x3d335ca6	0.04378953
31	0x3cf67d79	0.030089127
32	0x3c914c38	0.01773654
33	0x3db718fb	0.089403115
34	0x3d94da6e	0.07268225
35	0x3d2d81ae	0.04236
36	0x3cac25f5	0.021014193
37	0x3cdb85c3	0.026797181
38	0x3d426e7c	0.047468647
39	0x3c8f6b0e	0.017507102
40	0x3cc03dbe	0.023466941
41	0x3cc2c9ec	0.023777924
42	0x3d2c0216	0.041994177
43	0x38389cf2	4.4015185e-05
44	0x3e05da49	0.1307155
45	0x3d5d1a4c	0.053980157
46	0xbc146834	-0.009058047
47	0x3c851899	0.01624708
48	0x3d7ec8ad	0.062203098
49	0x3d651f9d	0.055938352
50	0x3bfc4b5f	0.0076994146
51	0x3b613c91	0.0034368376
52	0x3c8bef78	0.017081961
53	0x3c3e30e0	0.011608332
54	0x3d2d1ef3	0.042265844
55	0x3d9befae	0.07614075
56	0x3b3878a8	0.0028148089
57	0x3db4534e	0.088049516
58	0x3cbd80ba	0.02313267
59	0xbc29be4b	-0.010360311
60	0x3dddc6b0	0.10828912
61	0x3cdc157c	0.026865713
62	0x3c728a16	0.01480343
63	0xbb92de45	-0.004482063

fc.weight f4 [10, 256]
0	0x3c8c2435	0.017107109
1	0x3df4a798	0.119460285
2	0x3dbb4fb6	0.09146063
3	0x3de38339	0.11109013
4	0x3d1cc076	0.038269483
5	0xbe2d2388	-0.16908085
6	0x3b012436	0.0019705421
7	0x3c94223c	0.01808273
8	0xbbc94a33	-0.0061428784
9	0xbdda8580	-0.10669994
10	0xbe25d389	-0.16193976
11	0xbba82d97	-0.005132388
12	0xbe0b1e1b	-0.13585703
13	0xbd3399c9	-0.043847833
14	0x3c972b9e	0.018453415
15	0x3d6c5281	0.05769587
16	0xbd15d99d	-0.036584485
17	0x3d462f2b	0.048384827
18	0x3da1df22	0.07903887
19	0x3dbdb5d2	0.09263195
20	0xbd3d36cd	-0.04619484
21	0xbcc285cc	-0.02374544
22	0x3e18b1f1	0.1491163
23	0xbd87150d	-0.06595812
24	0x3e0f91bf	0.14020441
25	0x3cbe01f2	0.023194287
26	0x3daa2192	0.08307184
27	0x3daf21ac	0.08551344
28	0x3e3c9803	0.18417363
29	0x3dea9785	0.11454681
30	0x3e08c395	0.13355859
31	0x3e9e88bf	0.30963704
32	0x3d61d82d	0.055137802
33	0x3e200207	0.15625773
34	0x3dfc2cc2	0.123132244
35	0x3dd90689	0.105969496
36	0xbdd9a7bf	-0.10627698
37	0x3cd13920	0.025539935
38	0x3cc57d89	0.024107711
39	0x3cdaf8ee	0.026730027
40	0xbc24843d	-0.010041294
41	0xbdc2a8e4	-0.095048696
42	0xbe655834	-0.22396928
43	0xbda198fb	-0.07890507
44	0xbe8548be	-0.2603206
45	0xbe82dab2	-0.25557476
46	0xbe944fce	-0.28967136
47	0xbe7f0291	-0.24903323
48	0xbddd928d	-0.10818968
49	0x3e127ccb	0.14305417
50	0x3da9e471	0.08295525
51	0x3ea22ce9	0.3167489
52	0xbe4bf634	-0.19918138
53	0xbe4a922c	-0.19782323
54	0xbd91e7d5	-0.071242966
55	0xbdb0cd01	-0.086328514
56	0xbc61e832	-0.01378827
57	0x3cc19f72	0.0236356
58	0xbe47569f	-0.19466637
59	0x3d8103a1	0.0629952
60	0xbe6aa351	-0.22913863
61	0xbd6a6a1d	-0.057230104
62	0xbe5f7880	-0.21823311
63	0xbda8b24f	-0.08237135
64	0xbda0d04b	-0.07852229
65	0x3de1f047	0.110321574
66	0x3bbe340d	0.005804545
67	0x3dafbf4b	0.08581408
68	0xbd64d64f	-0.055868443
69	0xbcb650f6	-0.022255402
70	0x3e0ea237	0.13929068
71	0x3e4b4c2e	0.19853279
72	0x3d9ab7fd	0.07554624
73	0xbda2e079	-0.07952971
74	0x3d7a177d	0.061057556
75	0xbe1cf1eb	-0.1532666
76	0xbdae602f	-0.08514439
77	0xbdbeaae5	-0.09309939
78	0xbd2380c8	-0.039917737
79	0xbe918bc8	-0.28426957
80	0x3e2a30e8	0.16620219
81	0x3ca320d6	0.019913118
82	0x3d2203be	0.03955435
83	0xbd23cdad	-0.03999107
84	0x3e1e8d4c	0.15483588
85	0x3e6d62ca	0.23182216
86	0x3d59cad9	0.053171966
87	0x3d9b4b90	0.07582772
88	0xbe38bc66	-0.18040618
89	0x3e3175a8	0.17330039
90	0xbe3a9e9e	-0.1822457
91	0x3cd52bc9	0.026021855
92	0xbdbc5ae5	-0.09197024
93	0x3dde3c49	0.10851342
94	0x3cad02b1	0.021119447
95	0x3c9cb7f2	0.01913068
96	0xbdd00b7a	-0.10158439
97	0xbe946de7	-0.289901
98	0xbd4da27f	-0.050203796
99	0xbe89c8f2	-0.26911122
100	0xbe392e88	-0.18084157
101	0xbe05c480	-0.1306324
102	0xbe8f0470	-0.27933073
103	0xbe3539e0	-0.17697859
104	0x3e0495c6	0.12947759
105	0x3e239313	0.15974073
106	0x3e9d136d	0.30678883
107	0x3e3359ae	0.17514679
108	0xbe1ba931	-0.1520126
109	0xbd0ee161	-0.034882907
110	0xbd4ff1e8	-0.05076781
111	0x3dc7ccac	0.09755835
112	0xbd99d5ea	-0.07511504
113	0x3c8df1ed	0.017327273
114	0x3bde6667	0.0067871097
115	0x3d20ea31	0.039285842
116	0xbd30f24f	-0.043199833
117	0xbbd336da	-0.006445748
118	0x3d918427	0.07105284
119	0xbd9300fb	-0.071779214
120	0xbe946a69	-0.28987435
121	0xbe2c31db	-0.16815893
122	0xbe319ec2	-0.17345718
123	0xbe240f1a	-0.16021386
124	0xbe17e62f	-0.14833902
125	0xbce61141	-0.0280844
126	0xbe98fec0	-0.2988186
127	0xbe084f2e	-0.13311455
128	0x3e394ac8	0.18094933
129	0x3c6d35cb	0.014478157
130	0x3c491882	0.0122739095
131	0xbcd34aff	-0.025792597
132	0x3de00a21	0.10939432
133	0x3e883ffa	0.2661131
134	0x3d871991	0.06596673
135	0x3e5a5f97	0.21325527
136	0x3e51a3dc	0.20472664
137	0x3e72fa6f	0.23728345
138	0x3e889d58	0.26682544
139	0x3c229a63	0.009924504
140	0xbcf6dc67	-0.030134393
141	0xbd8d52d4	-0.06900564
142	0xbdf18643	-0.117931865
143	0xbdc246b7	-0.09486144
144	0xbe0b5d60	-0.13609838
145	0xbe17dd32	-0.14830473
146	0xbda653b9	-0.081214376
147	0xbd10bc79	-0.03533599
148	0xbd921308	-0.07132536
149	0x3d97d6c5	0.07414011
150	0x3d9328f5	0.07185546
151	0x3e161ef7	0.1466025
152	0xbe852351	-0.26003507
153	0xbd1b49dd	-0.03791224
154	0xbdb5c609	-0.08875663
155	0xbdffdf25	-0.12493733
156	0x3dee1d6b	0.11626705
157	0x3dd7b1a0	0.10531926
158	0x3e096ac6	0.13419637
159	0x3d18eab6	0.037333213
160	0xbd81bcd7	-0.063348465
161	0x3df170d5	0.11789099
162	0xbe11270f	-0.14175056
163	0x3e27bf99	0.16381682
164	0x3e9481dd	0.29005328
165	0x3d777f3a	0.060424067
166	0x3da111b1	0.078647025
167	0x3d63bb08	0.05559829
168	0xbdb0bf8d	-0.086302854
169	0xbd15b8ab	-0.036553066
170	0xbc2ab304	-0.010418657
171	0x3d0340b4	0.032044128
172	0x3d8246be	0.06361149
173	0x3d9dc922	0.07704379
174	0x3cba236e	0.022721972
175	0xbd21818b	-0.039430182
176	0xbe1776b3	-0.14791374
177	0xbdd4d258	-0.103916824
178	0xbe2449b7	-0.16043745
179	0xbe275efb	-0.16344826
180	0x3e081f9f	0.13293312
181	0x3e147c95	0.1450065
182	0x3e7121f3	0.23548107
183	0x3dcb016a	0.09912379
184	0x3e5bbbc5	0.21458347
185	0x3e2a6ce7	0.16643105
186	0x3e057ecb	0.13036649
187	0x3dc90103	0.09814646
188	0xbe5d90cd	-0.21637268
189	0x3d4caa89	0.049967322
190	0xbcb4f339	-0.022088634
191	0x3d463235	0.048387725
192	0x3e3385e9	0.17531551
193	0x3e32cfef	0.17462133
194	0x3e0be6f1	0.13662316
195	0x3c9686d8	0.018374845
196	0xbd278815	-0.040901262
197	0xbce52146	-0.027969968
198	0xbde752cd	-0.1129509
199	0xbe2c922d	-0.16852637
200	0x3e2795cc	0.16365737
201	0xbda990c1	-0.08279563
202	0x3eb16b40	0.34652138
203	0xbde68038	-0.112549245
204	0xbe2ee17f	-0.17078207
205	0xbdb2b85c	-0.0872657
206	0xbd9e927f	-0.07742786
207	0xbdaa12af	-0.08304345
208	0x3dbb2a65	0.091389455
209	0xbdd4a955	-0.1038386
210	0x3e0e35a8	0.13887656
211	0x3c2b7d8b	0.0104669435
212	0x3e7dcd64	0.24785382
213	0x3dfb3e14	0.122677
214	0x3e809490	0.25113344
215	0xbd34b079	-0.04411361
216	0xbd287775	-0.041129548
217	0x3dfccaf6	0.12343399
218	0xbdd74994	-0.10512081
219	0x3d6f4d8f	0.058423575
220	0xbdbbc821	-0.09169031
221	0xbe27b2eb	-0.16376846
222	0x3ca7a08c	0.020462297
223	0xbc08cc95	-0.008349557
224	0x3dacc10a	0.08435257
225	0xba3c8639	-0.00071916316
226	0xbda5abec	-0.08089432
227	0xbe344aae	-0.17606613
228	0xbd472ad2	-0.04862482
229	0x3e1f7e0d	0.15575428
230	0xbe2ba95c	-0.16763824
231	0x3d163c14	0.03667839
232	0x3e550f84	0.208067
233	0x3c5a2c4b	0.013316224
234	0x3e3e3ab7	0.18577085
235	0x3d417c47	0.04723766
236	0x3e2cccee	0.1687505
237	0x3dd410e5	0.10354785
238	0x3eaf5ca7	0.34250376
239	0x3e602f2a	0.21892992
240	0xbdedc974	-0.1161069
241	0xbdbad137	-0.09121936
242	0xbdf66223	-0.12030437
243	0xbdd19d09	-0.1023503
244	0x3c4df0ea	0.012569645
245	0xbb2a170a	-0.0025953674
246	0xbdf04a5c	-0.11732933
247	0xbe03f276	-0.1288546
248	0x3e1ae932	0.1512802
249	0x3e691597	0.22762142
250	0x3e57309a	0.21014634
251	0x3c0c6373	0.008568632
252	0xbd913281	-0.07089711
253	0x3e1077f8	0.14108264
254	0x3e208bc0	0.1567831
255	0x3e6259f8	0.22104633

fc.bias f4 [10]
0	0xbd35ad78	-0.044354886
1	0xbe1e2b80	-0.15446281
2	0x3d88e071	0.06683434
3	0x3c5c3f0e	0.013442768
4	0x3cb6dc89	0.022321956
5	0x3da09830	0.078415275
6	0x3cbb308b	0.022850296
7	0xbba93119	-0.0051633236
8	0x3cfb70d8	0.030693457
9	0xbcfb3d3d	-0.03066885

bn1.weight f4 [32]
0	0x3db58718	0.08863658
1	0x3f090a08	0.5353093
2	0x3f7f95ff	0.9983825
3	0x3e283498	0.16426313
4	0x3f795285	0.9739154
5	0x3f2ae9e7	0.66763157
6	0x3ebc07d6	0.36724728
7	0x3f515a3a	0.817783
8	0x3f3e1568	0.74251413
9	0x3e818206	0.25294513
10	0x3f3fa70d	0.74864274
11	0x3f6c8b4b	0.92400044
12	0x3eeaa2aa	0.45827228
13	0x3e3e0728	0.18557417
14	0x3e6ec7b0	0.23318362
15	0x3e8363ba	0.25662023
16	0x3eccf00e	0.40026897
17	0x3d545630	0.051840007
18	0x3e8e1066	0.27746886
19	0x3e48b06c	0.1959855
20	0x3ed0f45a	0.40811425
21	0x3a932a00	0.0011227727
22	0x3ee62794	0.4495207
23	0x3f6b3486	0.9187702
24	0x3e94f288	0.29091287
25	0x3f753a34	0.95791936
26	0x3ebbc0e8	0.36670613
27	0x3ed8c958	0.42341113
28	0x3c542100	0.012947321
29	0x3f225c71	0.63422304
30	0x3e95179e	0.2911958
31	0x3df87ad8	0.121328056

bn1.bias f4 [32]
0	0x00000000	0.0
1	0x00000000	0.0
2	0x00000000	0.0
3	0x00000000	0.0
4	0x00000000	0.0
5	0x00000000	0.0
6	0x00000000	0.0
7	0x00000000	0.0
8	0x00000000	0.0
9	0x00000000	0.0
10	0x00000000	0.0
11	0x00000000	0.0
12	0x00000000	0.0
13	0x00000000	0.0
14	0x00000000	0.0
15	0x00000000	0.0
16	0x00000000	0.0
17	0x00000000	0.0
18	0x00000000	0.0
19	0x00000000	0.0
20	0x00000000	0.0
21	0x00000000	0.0
22	0x00000000	0.0
23	0x00000000	0.0
24	0x00000000	0.0
25	0x00000000	0.0
26	0x00000000	0.0
27	0x00000000	0.0
28	0x00000000	0.0
29	0x00000000	0.0
30	0x00000000	0.0
31	0x00000000	0.0

bn2.weight f4 [64]
0	0x3e814456	0.2524745
1	0x3f16ca43	0.58902377
2	0x3e8216e2	0.25408083
3	0x3e0d2024	0.13781792
4	0x3f0f941c	0.5608537
5	0x3f7a250f	0.97712797
6	0x3f0a1062	0.5393125
7	0x3f476cc7	0.77900356
8	0x3ef775c0	0.48332024
9	0x3eeca966	0.4622299
10	0x3f78f7bf	0.9725303
11	0x3f0ace34	0.5422089
12	0x3dcee0a8	0.101014435
13	0x3f4afb07	0.7928929
14	0x3f609b42	0.87736905
15	0x3c90be60	0.017668903
16	0x3f3471c3	0.70486087
17	0x3f659c91	0.89692026
18	0x3f6ecff1	0.93286043
19	0x3ec61bb0	0.38693
20	0x3f673d5a	0.9032799
21	0x3d9fc870	0.07801902
22	0x3f4074a8	0.75178003
23	0x3f1c6b73	0.61101454
24	0x3d57cdf0	0.05268663
25	0x3f1b529a	0.60672915
26	0x3f074b48	0.52849245
27	0x3f3cb8c5	0.73719436
28	0x3f49747c	0.78693366
29	0x3d6dfd80	0.058103085
30	0x3ed7cf44	0.4215032
31	0x3f0822f2	0.5317832
32	0x3ecd1678	0.40056205
33	0x3e745248	0.23859513
34	0x3ec0dcda	0.37668496
35	0x3f3c536b	0.73564786
36	0x3f7cb425	0.9871238
37	0x3f096dd9	0.5368324
38	0x3c492d40	0.012278855
39	0x3f72960a	0.9476019
40	0x3d184610	0.03717619
41	0x3f48fdf5	0.7851251
42	0x3f6d51ed	0.92703134
43	0x3e97a2e2	0.29616457
44	0x3f499a4c	0.78751063
45	0x3ec14204	0.37745678
46	0x3f6e7818	0.93152
47	0x3df76788	0.12080294
48	0x3ee2af7c	0.4427451
49	0x3f10eab7	0.56608146
50	0x3f3f2e39	0.74679905
51	0x3f38783e	0.72058475
52	0x3eeee780	0.46660995
53	0x3e7d389c	0.24728626
54	0x3e22fde8	0.1591717
55	0x3f62c02f	0.885745
56	0x3e8369cc	0.25666654
57	0x3ee57420	0.4481516
58	0x3e843e84	0.25828946
59	0x3f3c7ad0	0.73624897
60	0x3f3bf410	0.73419285
61	0x3f03355b	0.5125329
62	0x3ed8dce6	0.42356032
63	0x3eedbc44	0.46432698

bn2.bias f4 [64]
0	0x00000000	0.0
1	0x00000000	0.0
2	0x00000000	0.0
3	0x00000000	0.0
4	0x00000000	0.0
5	0x00000000	0.0
6	0x00000000	0.0
7	0x00000000	0.0
8	0x00000000	0.0
9	0x00000000	0.0
10	0x00000000	0.0
11	0x00000000	0.0
12	0x00000000	0.0
13	0x00000000	0.0
14	0x00000000	0.0
15	0x00000000	0.0
16	0x00000000	0.0
17	0x00000000	0.0
18	0x00000000	0.0
19	0x00000000	0.0
20	0x00000000	0.0
21	0x00000000	0.0
22	0x00000000	0.0
23	0x00000000	0.0
24	0x00000000	0.0
25	0x00000000	0.0
26	0x00000000	0.0
27	0x00000000	0.0
28	0x00000000	0.0
29	0x00000000	0.0
30	0x00000000	0.0
31	0x00000000	0.0
32	0x00000000	0.0
33	0x00000000	0.0
34	0x00000000	0.0
35	0x00000000	0.0
36	0x00000000	0.0
37	0x00000000	0.0
38	0x00000000	0.0
39	0x00000000	0.0
40	0x00000000	0.0
41	0x00000000	0.0
42	0x00000000	0.0
43	0x00000000	0.0
44	0x00000000	0.0
45	0x00000000	0.0
46	0x00000000	0.0
47	0x00000000	0.0
48	0x00000000	0.0
49	0x00000000	0.0
50	0x00000000	0.0
51	0x00000000	0.0
52	0x00000000	0.0
53	0x00000000	0.0
54	0x00000000	0.0
55	0x00000000	0.0
56	0x00000000	0.0
57	0x00000000	0.0
58	0x00000000	0.0
59	0x00000000	0.0
60	0x00000000	0.0
61	0x00000000	0.0
62	0x00000000	0.0
63	0x00000000	0.0
